models/decoder_v1.onnx (onnx, 692688 bytes, 10 tensors)

decoder.0.weight f4 [2, 32, 1, 1]
-0.08344639 -0.19813402 0.1732478 -0.014364263 0.046411093 -0.027655533 0.027428031 -0.087001994
0.06520764 -0.13314354 -0.1466921 0.1496638 -0.07097678 0.1440465 -0.23426445 0.09596676
-0.013982576 -0.12937942 0.19149208 0.13404173 -0.03339041 0.07402479 0.06367593 0.22316192
0.08592545 0.20605253 0.1473556 -0.043347046 0.09418476 0.1903366 -0.022470638 0.12394223
-0.08782712 0.09853288 -0.0810767 0.122820295 -0.25953466 -0.02597136 -0.10226508 0.013084111
0.21072368 -0.20097418 0.07988469 -0.14079854 0.15112881 -0.053618394 0.06816245 -0.14095265
-0.19357 -0.07279797 -0.0019251653 -0.033571895 -0.19159424 0.17384067 0.1984286 0.016717143
-0.100348264 -0.12503605 0.035964124 0.15754463 -0.04162714 -0.039058372 -0.064386055 0.066299014
00000000: f1e5 aabd a5e3 4abe df67 313e 1658 6bbc
00000010: 8f19 3e3d db8d e2bc c0b0 e03c 1a2e b2bd
00000020: 958b 853d c856 08be 7436 16be 7841 193e
00000030: 465c 91bd ed80 133e 05e3 6fbe 388a c43d
00000040: 2d17 65bc 0a7c 04be 8016 443e 3c42 093e
00000050: 62c4 08bd 4f9a 973d 8768 823d 8f84 643e
00000060: aff9 af3d 6fff 523e 63e4 163e ac8c 31bd
00000070: f0e3 c03d 99e7 423e 5814 b8bc 6dd5 fd3d
00000080: b5de b3bd 9bcb c93d 8a0b a6bd 3589 fb3d
00000090: bae1 84be e4c1 d4bc 5b70 d1bd bd5e 563c
000000a0: f3c7 573e 2dcc 4dbe 969a a33d 7e2d 10be
000000b0: 83c1 1a3e f69e 5bbd c198 8b3d e455 10be
000000c0: 3737 46be 1a17 95bd d455 fcba af82 09bd
000000d0: 4831 44be 4a03 323e de30 4b3e 64f2 883c
000000e0: 6483 cdbd 7309 00be 1e4f 133d 6153 213e
000000f0: 3881 2abd acfb 1fbd d6dc 83bd c7c7 873d

decoder.0.bias f4 [32]
-0.14237054 0.13419329 -0.11828527 -0.083744854 0.10952626 0.25587583 0.16366051 -0.1945943
-0.007594903 -0.028961308 0.17151426 0.121618494 0.1366837 0.14771813 0.16204332 -0.043815214
-0.04876134 -0.04833575 -0.17066413 0.059413828 -0.081107534 0.11461244 -0.0865835 0.05473334
-0.18234546 0.1922637 0.015275452 0.14078759 0.026712185 0.16654271 0.2687991 0.14172216
00000000: 95c9 11be f769 093e 8c3f f2bd 6c82 abbd
00000010: 4e4f e03d 2802 833e 9f96 273e ba43 47be
00000020: aade f8bb 4440 edbc 6fa1 2f3e 1e13 f93d
00000030: d0f6 0b3e 6c43 173e afee 253e 9577 33bd
00000040: f9b9 47bd b5fb 45bd 94c2 2ebe ea5b 733d
00000050: b51b a6bd edb9 ea3d b152 b1bd 1130 603d
00000060: c5b8 3abe c6e0 443e e445 7a3c 9f2a 103e
00000070: 83d3 da3c 2c8a 2a3e 09a0 893e 9d1f 113e

decoder.2.weight f4 [32, 128, 1, 1]
0.017166378 0.03718601 -0.065674275 -0.0328502 0.037713002 0.056454945 0.0538134 0.035527904
-0.042975705 0.021103011 -0.08024429 0.015661534 -0.08805946 -0.053749595 0.035382785 -0.015341463
-0.07151636 -0.058395848 0.015769895 0.0063044336 0.05481829 -0.014260285 -0.06971741 0.026711386
-0.051383186 0.012379495 -0.08915413 -0.048005674 0.058377434 -0.02103396 0.04241793 -0.03576992
-0.04371199 -0.07008129 0.056791697 -0.012898425 -0.07936904 -0.07262026 -0.070669584 -0.093644306
0.046871852 -0.07661883 -0.049523734 -0.07347052 -0.0802869 0.06505877 -0.013385671 -0.04389036
-0.034736343 -0.0058268206 -0.06297946 -0.017577883 -0.06261287 0.0017109857 -0.045688324 -0.07038695
-0.07197779 0.06141151 0.045496285 -0.06683299 -0.009361075 -0.027846389 0.015809854 0.0480614
-0.080814175 -0.040542595 -0.07613859 0.07950326 0.022303658 0.00970028 0.025664827 0.007056357
0.030021263 -0.075861774 -0.080413006 -0.09165653 -0.105327405 0.011968645 0.049853157 -0.016884184
-0.035149574 -0.055626407 -0.07861153 -0.030116402 0.030353224 -0.041672457 0.027318358 -0.1376518
-0.062108684 -0.009198548 0.07665511 0.003477025 -0.04455123 -0.04971649 -0.03320011 -0.0057239933
-0.09329594 0.055887204 0.025435839 -0.04777039 0.036422417 -0.027882962 -0.05408914 -0.005592986
-0.032659423 -0.11036879 0.0410382 -0.07033742 -0.0047347774 0.046254456 -0.0038133857 0.09038984
-0.019094285 0.06773039 -0.08704382 0.067827426 -0.06787803 0.027262056 -0.057280943 -0.033216912
-0.009214246 -0.065716505 0.05262695 -0.024239399 -0.06400944 0.09305375 -0.03872638 -0.07798152
0.03341489 0.033577874 0.033211663 -0.07336952 0.018859647 0.022936728 0.016147878 0.028823845
-0.14103766 -0.009390012 -0.08394076 -0.067256816 0.035403937 -0.08769332 -0.10375933 -0.066794224
0.04162192 -0.053456023 0.03540224 -0.0958215 -0.052311428 0.100628965 0.24316631 0.0128382705
-0.016716624 -0.05143178 -0.012471448 0.052977458 0.05491392 -0.058844063 -0.033000764 -0.0546158
0.089620024 -0.08665542 0.1100966 -0.02825091 -0.004672352 0.10401049 0.011423958 -0.044652395
-0.10863696 -0.042306863 0.044287167 0.06627102 0.09898252 -0.036621906 -0.11774714 0.10557654
0.20072845 -0.026641136 -0.048688058 0.072455645 -0.07933893 -0.09819006 -0.10882112 -0.053764094
0.025781998 -0.009183684 -0.122882165 -0.013260077 0.051788155 0.13796327 0.011948437 -0.04477424
0.0034208314 0.16585144 0.059275206 0.25115642 0.024672017 -0.073904894 -0.12599017 -0.033230618
0.050978318 -0.061577834 -0.10967095 -0.09147415 0.05187372 0.12923 0.05518257 -0.14017124
-0.08360024 0.06380757 0.014927334 0.22319932 0.020643502 -0.07489229 -0.013514017 -0.12416159
0.062876135 0.074626386 0.033686515 -0.055689614 -0.07879619 0.12745406 0.08231838 0.007898425
0.22186863 0.10668123 -0.001972501 -0.093011074 0.08846633 -0.16765416 0.070619054 -0.07695216
0.04266767 0.16083375 0.079516105 -0.031446744 -0.12416523 -0.030508406 0.13889685 0.26874736
0.051584136 -0.020042874 0.183998 -0.026714118 -0.15388268 0.08312777 -0.0026445019 0.024549192
-0.037544817 0.12818302 -0.057009377 0.11640632 0.016196942 -0.081975296 -0.008681271 0.14461811
00000000: 81a0 8c3c 5c50 183d 3c80 86bd ee8d 06bd
00000010: f378 1a3d 4d3d 673d 716b 5c3d b585 113d
00000020: 4b07 30bd 39e0 ac3c 1e57 a4bd 9e4c 803c
00000030: 8558 b4bd 8928 5cbd 8aed 103d c25a 7bbc
00000040: 2b77 92bd 7c30 6fbd de2f 813c 6c95 ce3b
00000050: 2589 603d f8a3 69bc 00c8 8ebd d6d1 da3c
00000060: 2d77 52bd 5ed3 4a3c 7196 b6bd 99a1 44bd
00000070: 2d1d 6f3d 694f acbc 6cbe 2d3d 7b83 12bd
00000080: 580b 33bd c886 8fbd 699e 683d ea53 53bc
00000090: 3c8c a2bd eeb9 94bd 37bb 90bd 96c8 bfbd
000000a0: b3fc 3f3d 55ea 9cbd 66d9 4abd b677 96bd
000000b0: 756d a4bd 883d 853d 934f 5bbc 61c6 33bd
000000c0: b247 0ebd eaee bebb 60fb 80bd 7eff 8fbc
000000d0: 2d3b 80bd 2743 e03a ae23 3bbd 0927 90bd
000000e0: 1769 93bd a38a 7b3d 505a 3a3d bcdf 88bd
000000f0: 325f 19bc 1c1e e4bc ab83 813c 08dc 443d
00000100: e781 a5bd fe0f 26bd 8dee 9bbd 9bd2 a23d
00000110: 29b6 b63c eced 1e3c 0b3f d23c 0339 e73b
00000120: 27ef f53c 6b5d 9bbd 93af a4bd 6bb6 bbbd
00000130: e5b5 d7bd 2318 443c d332 4c3d b350 8abc
00000140: 00f9 0fbd 84d8 63bd 15ff a0bd acb6 f6bc
00000150: 53a7 f83c bdb0 2abd c0ca df3c 98f4 0cbe
00000160: ad65 7ebd 82b5 16bc 5bfd 9c3d cdde 633b
00000170: 5a7b 36bd 85a3 4bbd d7fc 07bd 5690 bbbb
00000180: f111 bfbd fbe9 643d d25e d03c e2aa 43bd
00000190: ac2f 153d cf6a e4bc 938c 5dbd 5e45 b7bb
000001a0: e3c5 05bd 0809 e2bd ac17 283d 110d 90bd
000001b0: 3126 9bbb 5075 3d3d ffe9 79bb 4f1e b93d
000001c0: 9e6b 9cbc 3bb6 8a3d 0844 b2bd 1be9 8a3d
000001d0: a303 8bbd ad54 df3c 6c9f 6abd 750e 08bd
000001e0: 59f7 16bc 6096 86bd 5b8f 573d b491 c6bc
000001f0: 6217 83bd f792 be3d 8d9f 1ebd c6b4 9fbd
00000200: 0dde 083d f488 093d f408 083d c242 96bd
00000210: 8c7f 9a3c cee5 bb3c 8e48 843c fc1f ec3c
00000220: 2d6c 10be 91d8 19bc 22e9 abbd f1bd 89bd
00000230: b803 113d 8e98 b3bd c67f d4bd 69cb 88bd
00000240: bf7b 2a3d b4f4 5abd f001 113d 103e c4bd
00000250: 8244 56bd 8f16 ce3d 9700 793e 9c57 523c
00000260: 4df1 88bc 21aa 52bd 0b55 4cbc e4fe 583d
00000270: 6bed 603d 7906 71bd cf2b 07bd d1b4 5fbd
00000280: b48a b73d 6678 b1bd 547a e13d 746e e7bc
00000290: 881a 99bb 7403 d53d 8e2b 3b3c 6ee5 36bd
000002a0: 0e7d debd f649 2dbd 7666 353d 1ab9 873d
000002b0: 59b7 ca3d da00 16bd 6a25 f1bd 8338 d83d
000002c0: c28b 4d3e 833e dabc 216d 47bd a063 943d
000002d0: 737c a2bd df17 c9bd 9bdd debd bd37 5cbd
000002e0: c534 d33c 2a77 16bc a5a9 fbbd cb40 59bc
000002f0: d11f 543d 3e46 0d3e 61c3 433c 3265 37bd
00000300: 0730 603b f6d4 293e 8fca 723d 9397 803e
00000310: f81c ca3c 735b 97bd 9103 01be d41c 08bd
00000320: a4ce 503d 0a39 7cbd 2a9b e0bd cd56 bbbd
00000330: 8a79 543d de54 043e 1e07 623d 0d89 0fbe
00000340: 9a36 abbd 8bad 823d c791 743c 5d8e 643e
00000350: 901c a93c 2161 99bd e569 5dbc 6f48 febd
00000360: 34c5 803d b8d5 983d dffa 093d cb1a 64bd
00000370: e65f a1bd 5183 023e 8a96 a83d 6568 013c
00000380: 8831 633e b07b da3d 1345 01bb 977c bebd
00000390: d62d b53d 88ad 2bbe b9a0 903d 1899 9dbd
000003a0: 4bc4 2e3d 9ab1 243e 57d9 a23d 4dce 00bd
000003b0: 574a febd c4ec f9bc fa3a 0e3e 4199 893e
000003c0: e349 533d f430 a4bc f969 3c3e 91d7 dabc
000003d0: 6c93 1dbe e43e aa3d 614f 2dbb 631b c93c
000003e0: 98c8 19bd 6942 033e aa82 69bd 7066 ee3d
000003f0: 73af 843c aae2 a7bd e43b 0ebc c516 143e

decoder.2.bias f4 [128]
0.027671473 0.036648247 -0.038655877 0.05135895 -0.095714346 0.094260395 -0.086839 0.08159513
-0.08630684 0.10137984 -0.05645233 0.00017981851 0.10442412 -0.009804577 0.062924944 -0.063751474
0.031434268 -0.013886613 -0.026875485 -0.082268454 -0.009324112 -0.0035858992 0.020301484 0.070949234
-0.013743332 -0.008759256 0.0077925613 -0.04589763 0.050455127 -0.019973006 -0.076192126 0.050003383
0.04212627 0.16171552 -0.08217453 0.0069806916 -0.07910871 -0.0700727 -0.019946942 -0.04619355
-0.09017028 -0.02523618 0.10740564 0.110390395 0.11998646 -0.07096732 0.0783199 0.17451963
0.004037056 -0.00080598396 -0.0536576 0.058085132 0.024395796 -0.12607436 -0.03222459 0.020141548
0.016485162 -0.10229702 0.079214126 0.012684066 0.0132312365 0.08070171 -0.079043515 -0.0128549915
0.045307405 0.037793573 -0.050866656 0.09953844 -0.014132877 -0.090089396 -0.10388199 0.009972953
0.011470213 0.010530669 -0.013260789 -0.09305576 -0.036692023 0.052684147 -0.061376568 0.014421316
-0.09290733 -0.05587099 -0.033373427 0.052477926 0.0031131424 -0.035583787 0.09596665 -0.057216085
0.027761508 0.026497506 -0.026290754 -0.033538595 0.010863494 0.049512643 0.09041303 -0.0605361
-0.002476702 -0.048234325 -0.089936025 -0.00069264456 0.005653347 -0.08389479 -0.079602085 0.07795283
-0.075706735 0.09975161 0.03851298 0.038716134 -0.03589901 0.11850665 0.1318947 0.044832848
-0.049019564 0.01818175 0.06096615 0.08908178 -0.06297765 0.051550638 0.036992643 0.0012456825
0.009847176 -0.08173712 0.10090998 -0.016844576 0.05580931 -0.06513635 -0.0048167324 0.13806522
00000000: 49af e23c 791c 163d a055 1ebd c35d 523d
00000010: e205 c4bd 980b c13d a5d8 b1bd 591b a73d
00000020: a4c1 b0bd 3ca0 cf3d 8f3a 67bd aa8d 3c39
00000030: 50dc d53d 60a3 20bc cbde 803d 2290 82bd
00000040: 38c1 003d ad84 63bc fa29 dcbc 5d7c a8bd
00000050: 29c4 18bc 6801 6bbb 4c4f a63c d54d 913d
00000060: b62b 61bc fc82 0fbc be58 ff3b 27ff 3bbd
00000070: 09aa 4e3d 6e9e a3bc 9e0a 9cbd 59d0 4c3d
00000080: 988c 2c3d c198 253e 1f4b a8bd 49be e43b
00000090: bf03 a2bd 4782 8fbd c567 a3bc 7335 3dbd
000000a0: 32ab b8bd 1bbc cebc 7df7 db3d 5c14 e23d
000000b0: 76bb f53d 5057 91bd 2f66 a03d 46b5 323e
000000c0: 4849 843b ab48 53ba 12c8 5bbd adea 6d3d
000000d0: b1d9 c73c a319 01be effd 03bd e3ff a43c
000000e0: e40b 873c 1a81 d1bd 043b a23d d4d0 4f3c
000000f0: d4c7 583c f046 a53d 91e1 a1bd be9d 52bc
00000100: 4294 393d 6fcd 1a3d 8e59 50bd cfda cb3d
00000110: 958d 67bc ca80 b8bd 15c0 d4bd 9965 233c
00000120: 8fed 3b3c d488 2c3c c843 59bc 0594 bebd
00000130: 604a 16bd 55cb 573d ff65 7bbd 6247 6c3c
00000140: 3346 bebd fbd8 64bd 93b2 08bd 18f3 563d
00000150: dd05 4c3b 4ec0 11bd 2a8a c43d 6a5b 6abd
00000160: 1a6c e33c 4c11 d93c b55f d7bc c45f 09bd
00000170: ccfc 313c c5cd 4a3d 772a b93d b4f4 77bd
00000180: 2a50 22bb 5b91 45bd 6130 b8bd 9792 35ba
00000190: b63f b93b 08d1 abbd 6b06 a3bd bca5 9f3d
000001a0: 220c 9bbd 924a cc3d c9bf 1d3d cf94 1e3d
000001b0: d70a 13bd 9db3 f23d 670f 073e a6a2 373d
000001c0: bdc8 48bd e5f1 943c a4b7 793d 8270 b63d
000001d0: 6dfa 80bd c326 533d 9985 173d 2b46 a33a
000001e0: 0d56 213c cb65 a7bd e4a9 ce3d a3fd 89bc
000001f0: 4e98 643d 3566 85bd aed5 9dbb f860 0d3e

decoder.4.weight f4 [128, 96, 3, 3]
-0.01783326 -0.028864557 -0.0024785786 0.0054346933 -0.002533117 0.009689505 -0.038293425 -0.014678258
0.018222775 -0.005525937 0.03105493 0.045213073 6.578859e-05 0.029401839 -0.027899753 -0.06741948
-0.10245483 -0.051348284 0.0171368 -0.0012360425 -0.018264415 0.0069519226 -0.0041985638 -0.029213047
-0.038089644 0.016421087 0.030059911 -0.0020966323 -0.0014528042 -0.019522227 -0.040114902 -0.0364055
0.029449161 0.022815319 -0.0094307205 0.019043049 -0.041294303 -0.005027507 -0.021908764 -0.009433393
-0.031038543 0.0038960425 0.043964967 0.04265356 -0.0062290295 0.03096855 -0.010907121 -0.031774964
-0.0057856445 -0.0018162716 0.033447843 0.01967135 -0.0041227466 0.0004303439 0.01755029 0.00042244428
-0.03277657 0.028837323 0.013313699 0.025297914 -0.02930281 -0.013453902 -0.02826625 0.0026582775
0.037345905 -0.0032898195 -0.009029173 -0.038546972 0.0036911713 -0.026184415 -0.0114470525 -0.013439095
0.0055983975 -0.0040306197 -0.017666139 0.01818773 -0.016438473 0.039920885 -0.017005846 0.035768963
-0.0050402894 -0.022575464 0.06228477 -0.052965093 0.06914355 0.0012297017 -0.019678306 0.017433653
0.03752387 -0.08478569 -0.018234655 -0.013129265 0.0047938717 -0.0038499173 -0.0047953883 -0.01973054
0.0046759243 0.0031575782 -0.030566415 -0.0048240493 0.026540203 0.008591195 -0.059599634 0.0025023255
0.016080935 -0.029514367 -0.015039531 -0.013578931 -0.005792879 0.031146588 0.030331597 0.012024093
0.0047846437 -0.029960437 -0.027823718 -0.004743023 -0.008451252 -0.009824863 0.035162296 0.0075514163
-0.0064795874 0.035786547 0.0001226491 0.028740881 0.0027432593 -0.021138955 -0.05873859 0.008056012
-0.04743133 -0.029726168 0.014983837 0.04707492 0.027660795 -0.0029498055 -0.0075078225 0.009346447
0.037583817 -0.056455605 0.0056235823 -0.0037813843 0.03818526 0.041060176 0.0171927 0.014998991
-0.024682013 0.043743424 0.022332018 0.007375785 0.009510463 -0.024239253 0.003072564 0.027696965
-0.024793988 0.028666032 -0.017238826 0.033267584 0.018342229 0.004070174 0.031164102 0.008506324
-0.015740495 -0.0065049985 0.007549518 -0.020553092 0.004479381 -0.014188056 -0.013357322 -0.01203814
-0.010706279 0.011763471 -0.014245073 -0.029868776 -0.005620802 0.023341633 0.024936125 0.028071389
-0.02174336 -0.015033975 -0.022693397 -0.012806232 0.020436931 0.021866065 -0.008886216 -0.014855879
-0.0009460383 -0.011567286 -0.003899314 -0.0031480987 0.0074498933 -0.038497537 -0.0047621806 -0.023044357
0.0012101969 0.0013728535 -0.039262127 0.0062914426 0.020292362 0.021473017 0.01107766 0.0017322857
0.021000404 -0.02133258 -0.027768243 0.024569433 -0.0351748 -0.002394177 -0.028916089 0.00044411796
-0.02329203 -0.030097116 -0.007565514 -0.009306655 0.014680129 0.03562251 -0.0072859577 -0.0021058426
0.009820786 0.010632374 0.007489459 -0.019671837 0.015373557 -0.039257012 0.020299504 -0.023355676
-0.027195452 0.07079984 -0.032165874 -0.000734459 -0.033116117 0.010996477 0.025748884 -0.003952312
-0.031065233 -0.009227717 0.041227546 0.0029787987 0.0011500058 -0.046913672 0.047605667 -0.027511928
0.007074965 -0.010032535 -0.041949403 -0.023543868 -0.053254653 -0.050310265 -0.03113942 0.008860894
0.039869964 -0.0014642098 0.055264525 -0.03133663 -0.0015663179 -0.009726019 -0.012856313 -0.024369512
00000000: 0f17 92bc 5d75 ecbc a66f 22bb 8315 b23b
00000010: a702 26bb bbc0 1e3c 91d9 1cbd 147d 70bc
00000020: ee47 953c eb12 b5bb e966 fe3c 5831 393d
00000030: fbf7 8938 20dc f03c 068e e4bc 3913 8abd
00000040: d7d3 d1bd 9452 52bd 7962 8c3c b402 a2ba
00000050: 419f 95bc f4cc e33b 1b94 89bb 3350 efbc
00000060: e303 1cbd 8485 863c 3440 f63c a767 09bb
00000070: 056c beba 14ed 9fbc 864f 24bd ef1d 15bd
00000080: 5e3f f13c 31e7 ba3c 4f83 1abc 2b00 9c3c
00000090: 3724 29bd c9bd a4bb 027a b3bc 858e 1abc
000000a0: 8b44 febc bf54 7f3b 9c14 343d 80b5 2e3d
000000b0: e31c ccbb c2b1 fd3c c8b3 32bc 7726 02bd
000000c0: 8195 bdbb f60f eeba 9b00 093d d025 a13c
000000d0: 1b18 87bb c89f e139 a0c5 8f3c 837b dd39
000000e0: ba40 06bd 403c ec3c b321 5a3c 923d cf3c
000000f0: 720c f0bc c16d 5cbc 9f8e e7bc 7f36 2e3b
00000100: 05f8 183d 039a 57bb 19ef 13bc 6ee3 1dbd
00000110: 94e7 713b b380 d6bc 6b8c 3bbc a62f 5cbc
00000120: c372 b73b 4a13 84bb 94b8 90bc 6ffe 943c
00000130: faa9 86bc 1584 233d d84f 8bbc 7a82 123d
00000140: 0329 a5bb 2ef0 b8bc 511e 7f3d edf1 58bd
00000150: 229b 8d3d f12d a13a 6634 a1bc 05d1 8e3c
00000160: a1b2 193d 1fa4 adbd d860 95bc 211c 57bc
00000170: e915 9d3b e54e 7cbb a222 9dbb f1a1 a1bc
00000180: 7f38 993b 5fef 4e3b 6b66 fabc 0f13 9ebb
00000190: d76a d93c 15c2 0c3c bf1e 74bd 0efe 233b
000001a0: 2abc 833c 1dc8 f1bc 5d68 76bc 2a7a 5ebc
000001b0: 31d2 bdbb 2127 ff3c f879 f83c b400 453c
000001c0: 80c8 9c3b 976f f5bc 91ee e3bc 5c6b 9bbb
000001d0: 1f77 0abc 76f8 20bc 5706 103d df71 f73b
000001e0: b852 d4bb ea94 123d 5e9b 0039 ff71 eb3c
000001f0: 41c8 333b 9a2b adbc e097 70bd 5dfd 033c
00000200: 5b47 42bd 4b84 f3bc c47e 753c a2d1 403d
00000210: e498 e23c 8651 41bb 2e04 f6bb d721 193c
00000220: 7df1 193d fe3d 67bd 0746 b83b 1ad1 77bb
00000230: 2668 1c3d b72e 283d b5d7 8c3c 54be 753c
00000240: ef31 cabc 4e2c 333d a3f1 b63c 92b0 f13b
00000250: c6d1 1b3c 6691 c6bc 125d 493b bfe4 e23c
00000260: c31c cbbc 07d5 ea3c 7038 8dbc 9743 083d
00000270: 7142 963c 185f 853b dc4b ff3c 1c5e 0b3c
00000280: 36f2 80bc e227 d5bb f261 f73b f55e a8bc
00000290: c5c7 923b 0575 68bc abd8 5abc 9e3b 45bc
000002a0: 6469 2fbc 93bb 403c 2b64 69bc 5daf f4bc
000002b0: b42e b8bb f436 bf3c d846 cc3c f8f5 e53c
000002c0: 221f b2bc 1051 76bc 81e7 b9bc 3bd1 51bc
000002d0: 5a6b a73c 7620 b33c 7e97 11bc 1366 73bc
000002e0: 8eff 77ba b784 3dbc a28b 7fbb 5550 4ebb
000002f0: 3c1e f43b 98af 1dbd 110c 9cbb 85c7 bcbc
00000300: 789f 9e3a 52f1 b33a 53d1 20bd 7228 ce3b
00000310: 2b3c a63c 2ee8 af3c 137f 353c dd0d e33a
00000320: 0a09 ac3c aac1 aebc 3a7a e3bc d645 c93c
00000330: 7313 10bd a0e7 1cbb 6fe1 ecbc 81d8 e839
00000340: edce bebc 3a8e f6bc 22e8 f7bb f17a 18bc
00000350: ec84 703c e9e8 113d 0bbf eebb 2d02 0abb
00000360: 5de7 203c 6933 2e3c 236a f53b d526 a1bc
00000370: 5fe1 7b3c f6cb 20bd 254b a63c 6754 bfbc
00000380: ffc8 debc 82ff 903d 5dc0 03bd b688 40ba
00000390: c4a4 07bd 912a 343c 53ef d23c 6582 81bb
000003a0: 847c febc da2f 17bc 37de 283d f337 433b
000003b0: cbbb 963a 8d28 40bd 29fe 423d b260 e1bc
000003c0: 1cd5 e73b 805f 24bc 23d3 2bbd 12df c0bc
000003d0: 8d21 5abd 2312 4ebd 1918 ffbc 482d 113c
000003e0: b04e 233d baea bfba 0e5d 623d d75a 00bd
000003f0: e84c cdba e159 1fbc 49a3 52bc 92a2 c7bc

decoder.4.bias f4 [96]
0.0068351673 -0.022659695 0.0114934575 -0.045439985 0.002225004 -0.027977763 0.0015341602 -0.024183843
0.009498811 0.029327046 -0.040726352 0.029805634 0.036509126 0.036356155 0.035206184 0.016229834
-0.0050049485 -0.004710385 0.010387597 0.008033729 -0.012549274 0.035053395 0.02408854 0.010840602
0.019169226 -0.005888101 0.035844747 0.033873107 -0.027643086 -0.028828518 0.015801001 0.0458353
-0.029908499 -0.0040986463 -4.183018e-06 -0.014770404 -0.004619702 -0.023839226 0.026245186 0.011645971
0.005229913 0.019504754 0.023180148 0.040154524 0.025163414 0.0051324135 0.018478576 0.03333793
0.014359128 0.0001683436 -0.019171318 -0.022985397 0.0030797452 0.027851997 -0.007913244 -0.018341877
0.012027223 0.02712419 0.0317788 0.023906881 -0.03489076 0.016736707 0.0220641 -6.2753395e-05
0.011078566 0.0052608848 -0.006638217 -0.009185074 0.014686626 0.022810146 0.034603905 0.0234262
-0.03626984 -0.011077116 0.028920442 0.021607168 0.044638976 0.03182929 0.034641612 -0.02109239
-0.0038518226 0.012552543 0.029120034 0.024209032 -0.004806736 -0.010901668 -0.0023911088 0.015257231
-0.0012919898 -0.026520085 0.009677412 -0.0026613318 0.0050939503 0.013246028 -0.025083033 -0.0076745423
00000000: 8af9 df3b d3a0 b9bc 0e4f 3c3c 471f 3abd
00000010: 5fd1 113b 9f31 e5bc e015 c93a 321d c6bc
00000020: e7a0 1b3c 463f f03c add0 26bd f22a f43c
00000030: 988a 153d 31ea 143d 5c34 103d 6ef4 843c
00000040: 8d00 a4bb 9359 9abb bd30 2a3c e79f 033c
00000050: 789b 4dbc 2694 0f3d 5455 c53c c89c 313c
00000060: c808 9d3c f9f0 c0bb f1d1 123d 87be 0a3d
00000070: c173 e2bc c929 ecbc 1a71 813c ccbd 3b3d
00000080: ab02 f5bc f04d 86bb da5b 8cb6 91ff 71bc
00000090: df60 97bb 7b4a c3bc 2500 d73c bece 3e3c
000000a0: b15f ab3b 6fc8 9f3c 4be4 bd3c 1279 243d
000000b0: 8123 ce3c ce2d a83b 6260 973c 5a8d 083d
000000c0: 8c42 6b3c 6485 3039 2b0d 9dbc df4b bcbc
000000d0: 8dd5 493b df29 e43c 8da6 01bc b441 96bc
000000e0: d40d 453c 8d33 de3c 7d2a 023d 5dd8 c33c
000000f0: 9de9 0ebd 6b1b 893c c5bf b43c 799a 83b8
00000100: e082 353c 8063 ac3b 6685 d9bb fe7c 16bc
00000110: 2da0 703c 58dc ba3c d3bc 0d3d 4de8 bf3c
00000120: af8f 14bd cb7c 35bc 90ea ec3c 8401 b13c
00000130: 5cd7 363d 6e5f 023d 5de4 0d3d f3c9 acbc
00000140: dc6e 7cbb 2ea9 4d3c 238d ee3c 0552 c63c
00000150: d381 9dbb e99c 32bc 26b4 1cbb 77f9 793c
00000160: fc57 a9ba a640 d9bc 028e 1e3c bd69 2ebb
00000170: 27eb a63b de05 593c ef7a cdbc ba7a fbbb

decoder.7.weight f4 [96, 48, 3, 3]
-0.00012404521 0.031993333 -0.04535711 0.034986064 -0.023902351 0.047908843 0.012364757 0.047858156
0.048135895 0.0019593458 -0.030686418 -0.03797994 0.039242 0.014309145 0.029990181 -0.03659106
0.030557448 -0.057958238 -0.008069747 -0.024032837 -0.027764643 0.02507689 -0.032170944 -0.04511134
-0.015027787 0.030426914 0.044376314 -0.048891015 -0.038518906 -0.0053992313 0.003258387 0.031211393
0.027463473 0.013651531 -0.020988384 0.03666334 -0.038344778 -0.02654181 0.0023204484 -0.009781862
0.04056126 -0.016405363 -0.0005142701 -0.042863764 0.004493387 0.03265966 0.071422525 -0.048008785
0.022667425 0.01049783 -0.07059458 0.028504983 0.025926875 -0.049286924 -0.020138115 -0.03148633
0.03422922 0.018820541 0.04151818 -0.004489332 0.03313584 -0.03837402 -0.021593029 -0.0040165437
0.0029874723 -0.019342829 -0.03473804 0.023339167 -0.02397298 -0.001424693 -0.0066701234 0.03665307
-0.042960472 0.0029173398 0.03007886 0.011664453 0.03691942 0.013186412 -0.011290899 0.020076392
0.022215698 0.032477662 -0.026786383 0.025028527 -0.0013948742 0.03878833 0.03887872 -0.021501753
0.010648611 -0.042485893 0.048545703 0.011409442 0.00085708866 0.0053248825 -0.011717737 -0.027137581
-0.022262784 -0.0493764 -0.01080533 0.028436076 -0.04412702 0.008112868 -0.038666803 0.023597332
0.04542368 0.025817586 0.0070354524 -0.0031700742 0.021082684 0.032622766 0.036008485 -0.012806563
0.012949811 0.023259997 0.005279001 -0.017265227 -0.01571546 0.011244656 -0.030207742 0.040767297
-0.028910771 -0.023418283 0.052408166 0.014244974 0.0023406108 -0.017897451 -0.020950118 -0.044936653
-0.029463766 -0.010067307 0.007100202 0.012218394 -0.013111088 0.04176408 -0.048340544 0.036211126
-0.021296782 0.026908621 -0.030899866 0.02789127 -0.016665809 0.05146735 0.039583717 0.02586395
-0.013864883 0.045253325 -0.011235676 -0.043553736 0.028850317 -0.041695137 -0.0055351593 0.026926642
-0.022167247 -0.024463974 0.050289504 -0.018287716 -0.011449284 0.033392083 -0.032915436 -0.011206336
0.0156719 -0.013817154 -0.03202261 0.012975465 0.016482295 0.051434014 0.002957557 -0.009237731
0.025553621 -0.067475505 0.008703098 -0.018591195 -0.035759293 0.013453083 -0.00042345884 0.017828425
-0.008423784 0.019216103 0.033904407 0.008908737 0.027904958 0.022613669 -0.010239832 0.013300824
-0.028021323 -0.0084135365 -0.03221784 -0.029696843 0.03639891 -0.029160067 -0.028885353 -0.0068859584
0.012143617 0.029395334 -0.010816567 0.031305306 0.030274259 -0.021778159 0.043491278 -0.00097011536
0.02282093 -0.012744762 -0.022245185 -0.028947992 -0.042109836 0.024826705 -0.025662225 -0.011023643
-0.04186426 -0.0032733162 0.009154302 0.043572415 -0.05103025 0.016928798 0.04204558 -0.0108846575
-0.021611486 -0.03984457 0.019061858 -0.027212312 -0.00554083 -0.015226444 -0.0008770199 0.032434598
0.04328731 0.039314423 -0.008676418 -0.010907957 0.0146910725 0.004726915 -0.04141828 -0.025668371
-0.041255258 -0.0016526859 -0.03834871 -0.024935756 0.017716805 0.046680093 0.008397495 0.029904064
-0.036127444 0.025903055 0.028097965 0.0055497764 -0.043074302 0.019408291 0.049759906 0.0324088
-0.019688869 -0.03528177 -0.020729745 -0.0018848215 -0.039552093 -0.002629005 0.009194455 -0.044977
00000000: 2212 02b9 710b 033d 61c8 39bd 8c4d 0f3d
00000010: ddce c3bc 103c 443d 8d95 4a3c ea06 443d
00000020: 252a 453d 5e68 003b 1562 fbbc db90 1bbd
00000030: 38bc 203d e770 6a3c f8ad f53c 82e0 15bd
00000040: 9d53 fa3c 9e65 6dbd f936 04bc 83e0 c4bc
00000050: ad72 e3bc 0d6e cd3c aec5 03bd abc6 38bd
00000060: 1b37 76bc dd41 f93c f0c3 353d f241 48bd
00000070: 00c6 1dbd 09ec b0bb aa8a 553b 09af ff3c
00000080: 14fb e03c acaa 5f3c d5ef abbc 4c2c 163d
00000090: 6a0f 1dbd 366e d9bc aa12 183b 1a44 20bc
000000a0: 9023 263d 8a64 86bc 15d0 06ba ea91 2fbd
000000b0: 433d 933b 23c6 053d f945 923d dca4 44bd
000000c0: 09b1 b93c 17ff 2b3c e493 90bd 4883 e93c
000000d0: 9964 d43c 16e1 49bd b0f8 a4bc cff7 00bd
000000e0: f033 0c3d 892d 9a3c f80e 2a3d 3f1b 93bb
000000f0: 72b9 073d 142e 1dbd dde3 b0bc 369d 83bb
00000100: 78c9 433b da74 9ebc 7a49 0ebd c831 bf3c
00000110: fc62 c4bc c4bc baba 0d91 dabb 8821 163d
00000120: 52f7 2fbd d730 3f3b f167 f63c 431c 3f3c
00000130: d138 173d d20b 583c 76fd 38bc 3f77 a43c
00000140: b2fd b53c 4c07 053d 1e6f dbbc a008 cd3c
00000150: 36d4 b6ba 83e0 1e3d 4b3f 1f3d 7224 b0bc
00000160: 8377 2e3c b005 2ebd dcd7 463d abee 3a3c
00000170: 3fae 603a 5a7c ae3b c0fb 3fbc a24f debc
00000180: 7160 b6bc e83e 4abd d708 31bc c6f2 e83c
00000190: 89be 34bd d6eb 043c 1561 1ebd 314f c13c
000001a0: 2e0e 3a3d 677f d33c a789 e63b 05c1 4fbb
000001b0: 98b5 ac3c 739f 053d a27d 133d 9ed2 51bc
000001c0: 722b 543c c08b be3c 78fb ac3b ce6f 8dbc
000001d0: b5bd 80bc 813b 383c 3a76 f7bc 9cfb 263d
000001e0: 48d6 ecbc b3d7 bfbc f2a9 563d c063 693c
000001f0: ef64 193b ad9d 92bc 959f abbc 7f0f 38bd
00000200: ff5d f1bc 59f1 24bc d0a8 e83b a92f 483c
00000210: e4cf 56bc d010 2b3d bc00 46bd 1e52 143d
00000220: 9776 aebc 786f dc3c b721 fdbc 3c7c e43c
00000230: bc86 88bc 6ecf 523d 8922 223d a2e0 d33c
00000240: 8929 63bc 8d5b 393d d715 38bc 6765 32bd
00000250: 8057 ec3c 85c8 2abd 4860 b5bb 4395 dc3c
00000260: 1698 b5bc ac68 c8bc 5efc 4d3d 1fd0 95bc
00000270: c795 3bbc 23c6 083d 56d2 06bd c89a 37bc
00000280: 5b62 803c 5861 62bc 242a 03bd 0b97 543c
00000290: e105 873c 79ac 523d 93d3 413b da59 17bc
000002a0: d455 d13c 9930 8abd 7097 0e3c 904c 98bc
000002b0: 5678 12bd 526a 5c3c af03 deb9 eb0c 923c
000002c0: e903 0abc 176b 9d3c 59df 0a3d f4f5 113c
000002d0: f098 e43c 4d40 b93c f8c4 27bc b3eb 593c
000002e0: f98c e5bc eed8 09bc dbf6 03bd cb46 f3bc
000002f0: 0617 153d 18e1 eebc faa0 ecbc 9ba3 e1bb
00000300: 05f6 463c 7cce f03c f837 31bc fe39 003d
00000310: b901 f83c 1c68 b2bc e923 323d 574f 7eba
00000320: f6f2 ba3c 68cf 50bc 893b b6bc 5724 edbc
00000330: 5d7b 2cbd 6061 cb3c 9639 d2bc 839c 34bc
00000340: dc79 2bbd 2285 56bb edfb 153c fd78 323d
00000350: 1805 51bd 43ae 8a3c fc37 2c3d 9055 32bc
00000360: 920a b1bc 0f34 23bd 9d27 9c3c 5bec debc
00000370: da8f b5bb 5678 79bc cfe7 65ba 24da 043d
00000380: 094e 313d 2908 213d 8927 0ebc 4ab7 32bc
00000390: d3b2 703c 3de4 9a3b 37a6 29bd 7a46 d2bc
000003a0: 46fb 28bd f09e d8ba 8913 1dbd 1246 ccbc
000003b0: d522 913c a033 3f3d a695 093c 5ef9 f43c
000003c0: 5ffa 13bd a532 d43c b42d e63c e6da b53b
000003d0: ae6e 30bd 23fe 9e3c 0bd1 4b3d 17bf 043d
000003e0: 8d4a a1bc 9e83 10bd 6dd1 a9bc 1d0c f7ba
000003f0: 6001 22bd 624b 2cbb 57a4 163c ce39 38bd

decoder.7.bias f4 [48]
-0.007565895 -0.026805002 0.02429405 -0.038493775 -0.008131019 -0.03784803 -0.049694136 0.015201434
0.035613112 -0.021219783 0.018775994 -0.013516426 -0.005934384 -0.03115755 0.014647369 0.05341491
0.008211463 -0.029152786 0.01700411 0.02201265 0.04813475 0.011977184 0.012609384 0.020841764
-0.021743594 0.03524889 0.049828403 -0.006740084 0.03196559 0.0100298105 0.0006869109 0.019792102
-0.008703041 0.05170966 -0.017191958 0.0011189732 -0.004896538 -0.038266126 0.014710025 -0.014301029
0.032514963 0.030147351 -0.036661096 -0.072561055 -0.00043430505 -0.003245348 0.041381627 0.010972066
00000000: 54eb f7bb 2a96 dbbc 5104 c73c a6ab 1dbd
00000010: f737 05bc 8906 1bbd 148c 4bbd 6f0f 793c
00000020: 0edf 113d 1cd5 adbc 1dd0 993c 0074 5dbc
00000030: 3975 c2bb 1e3e ffbc 85fb 6f3c 98c9 5a3d
00000040: 5f89 063c d3d1 eebc 344c 8b3c df53 b43c
00000050: f228 453d f33b 443c 9797 4e3c 59bc aa3c
00000060: 9f1f b2bc 2461 103d de18 4c3d ecdb dcbb
00000070: 5aee 023d 1354 243c cf11 343a 0c23 a23c
00000080: 3397 0ebc 82cd 533d 26d6 8cbc 83aa 923a
00000090: 2373 a0bb f1bc 1cbd 5102 713c dd4e 6abc
000000a0: 692e 053d 94f7 f63c f229 16bd e49a 94bd
000000b0: 70b3 e3b9 e8af 54bb c87f 293d 2ec4 333c

decoder.10.weight f4 [48, 3, 3, 3]
-0.10827773 -0.048528425 -0.16040921 -0.10462731 0.09203691 -0.15825301 -0.040347703 -0.18985337
-0.17365405 0.15044044 0.024954613 0.0745338 -0.17522283 -0.09531212 0.04892062 -0.17463404
-0.075334884 0.09732245 -0.0006638628 0.16504982 -0.10892384 0.017155455 -0.019731704 -0.15596078
0.038143944 -0.17267497 -0.16556142 0.00833308 0.1585599 -0.12069323 0.15917651 0.13041952
0.090545684 0.012868606 -0.0648285 -0.19083281 0.063610144 -0.08699705 0.015798591 0.083998755
0.20052446 0.038466346 0.045707546 0.17887829 -0.24894287 0.19206716 -0.15467285 -0.12515447
0.14552943 0.110665455 -0.038054947 -0.0162124 0.024173345 0.09999479 0.12994485 0.119672194
-0.13742569 0.07302492 0.4783568 -0.080459274 0.12726344 0.19779098 -0.33005252 0.051952615
0.18246186 -0.19650204 0.060511895 0.41741872 0.008638065 0.088936515 0.23839241 -0.36195698
0.07236175 0.17838834 0.018400252 0.3534636 0.38711208 -0.19738674 0.07925789 0.3570231
-0.3691131 -0.035164602 -0.19851783 -0.14052074 -0.07599469 0.124124646 0.15526956 -0.13345572
-0.07012928 0.002231254 -0.1325736 -0.15155095 0.06825331 0.0022382417 -0.16723154 -0.03546958
0.13835251 -0.17592515 -0.15982825 0.05356744 0.16841318 -0.13923074 -0.12407871 -0.16504988
0.0055628913 0.12703815 -0.1370105 0.13654341 0.14470752 0.035187166 -0.13482241 -0.0839606
-0.08669053 -0.1585612 0.0024210804 0.13922991 0.05304329 0.06364314 -0.092371605 0.08628663
0.05245411 -0.15789884 0.0036779568 -0.11213601 -0.1738313 -0.07017767 -0.057367444 -0.0069200653
-0.1701975 -0.011262498 -0.16039628 0.16829333 -0.06718955 0.06121219 0.038235854 0.12361098
0.044484075 0.1186675 -0.06316509 -0.18038349 -0.2544358 0.17416991 0.111756995 -0.09240679
0.09884013 0.07483435 0.037859943 0.011644553 -0.17570502 -0.19521415 0.16021295 -0.01364575
-0.0025300838 0.073452055 0.097035445 -0.15770096 -0.038352028 0.01833882 -0.18232425 0.08775096
0.05281415 -0.10094562 0.07935651 0.18121241 -0.035035383 -0.011871832 -0.101097606 0.05668637
-0.14710245 0.18857548 0.0808299 0.065942824 -0.08910577 -0.18041162 0.009101433 -0.103518926
0.056230202 0.076465905 -0.17740925 -0.07232517 -0.11509915 -0.10968051 0.002334611 0.013813568
0.042784974 -0.07038996 -0.13508031 -0.15136415 -0.025786594 -0.016764455 -0.04540111 -0.07178081
-0.011300613 0.065866336 0.05042586 0.14098215 0.1973658 0.117103316 0.15773779 0.043437555
-0.120682314 -0.03529354 0.19895184 -0.058139108 0.13207942 -0.012112381 0.1708553 0.12969624
0.13222632 -0.109772876 0.18230307 0.14633211 0.0028831225 0.07429318 -0.057580423 -0.14548203
-0.032905344 -0.15047877 0.14089872 0.05818196 -0.11996803 0.18857816 -0.15535012 -0.054666907
-0.16684783 -0.015954316 0.029502468 -0.082108356 0.06449462 -0.16094255 -0.056535065 -0.12939884
-0.0017968696 0.032107614 -0.08596633 0.07932169 0.11763494 -0.11970765 0.014537762 0.060938396
-0.0725068 -0.08484317 0.034685854 -0.16095483 0.054623242 0.13452919 0.0892141 0.019196896
-0.11373321 0.049051836 -0.16657847 -0.02531415 0.098619826 0.06719992 0.03883082 0.0044013076
00000000: b7c0 ddbd bec5 46bd 5042 24be d846 d6bd
00000010: d97d bc3d 140d 22be a243 25bd ec68 42be
00000020: 5ed2 31be 0f0d 1a3e 9e6d cc3c 2da5 983d
00000030: 9d6d 33be 0033 c3bd fd60 483d 44d3 32be
00000040: 2d49 9abd fe50 c73d 1407 2eba d202 293e
00000050: 7613 dfbd 9989 8c3c 62a4 a1bc 2fb4 1fbe
00000060: d33c 1c3d b5d1 30be ef88 29be 7987 083c
00000070: 875d 223e 032e f7bd 2bff 223e b28c 053e
00000080: 0470 b93d d8d6 523c cec4 84bd ad69 43be
00000090: 0946 823d 822b b2bd 0c6c 813c 8a07 ac3d
000000a0: 4956 4d3e e38e 1d3d d637 3b3d df2b 373e
000000b0: e1ea 7ebe 41ad 443e 8f62 1ebe 7e28 00be
000000c0: ab05 153e 92a4 e23d 81df 1bbd decf 84bc
000000d0: 2e07 c63c 12ca cc3d 4310 053e b216 f53d
000000e0: 52b9 0cbe 178e 953d 2feb f43e d5c7 a4bd
000000f0: 5951 023e b889 4a3e a5fc a8be 44cc 543d
00000100: 48d7 3a3e d537 49be 52db 773d e8b7 d53e
00000110: ac86 0d3c 5924 b63d 241d 743e 6d52 b9be
00000120: 6632 943d 6fab 363e 20bc 963c 2ef9 b43e
00000130: 8e33 c63e c01f 4abe f651 a23d bbcb b63e
00000140: 64fc bcbe c208 10bd 4248 4bbe abe4 0fbe
00000150: 1ba3 9bbd 1035 fe3d fcfe 1e3e 9ea8 08be
00000160: f19f 8fbd 3b3a 123b 60c1 07be 2c30 1bbe
00000170: 64c8 8b3d 77af 123b bf3e 2bbe 8d48 11bd
00000180: 48ac 0d3e b925 34be 04aa 23be 8869 5b3d
00000190: 8174 2c3e 8192 0ebe fb1c febd d602 29be
000001a0: ea48 b63b 4a16 023e 7b4c 0cbe 09d2 0b3e
000001b0: 352e 143e 6b20 103d e30e 0abe 89f3 abbd
000001c0: ce8a b1bd de5d 22be fdaa 1e3b 4992 0e3e
000001d0: ec43 593d 5657 823d 532d bdbd 0bb7 b03d
000001e0: 1fda 563d 3cb0 21be e009 713b 90a7 e5bd
000001f0: d500 32be 4fb9 8fbd 20fa 6abd b7c1 e2bb
00000200: 4148 2ebe 5786 38bc ec3e 24be 1655 2c3e
00000210: ad9a 89bd a2b9 7a3d 339d 1c3d c127 fd3d
00000220: ef34 363d f207 f33d b35c 81bd 73b6 38be
00000230: 6945 82be 9959 323e dae0 e43d c53f bdbd
00000240: b26c ca3d c042 993d 0713 1b3d ccc8 3e3c
00000250: 04ec 33be 38e6 47be dd0e 243e 6c92 5fbc
00000260: c3cf 25bb 086e 963d 85ba c63d 5c7c 21be
00000270: 0417 1dbd 4b3b 963c 35b3 3abe c6b6 b33d
00000280: a653 583d 94bc cebd aa85 a23d bf8f 393e
00000290: 4381 0fbd 1382 42bc 430c cfbd f82f 683d
000002a0: 06a2 16be ee19 413e 268a a53d 080d 873d
000002b0: 167d b6bd d3bd 38be 2d1e 153c bb01 d4bd
000002c0: a451 663d 289a 9c3d c5aa 35be 381f 94bd
000002d0: 1ab9 ebbd 2da0 e0bd 4600 193b 4e52 623c
000002e0: 4c3f 2f3d 9d28 90bd 7e52 0abe 34ff 1abe
000002f0: 683e d3bc 9c55 89bc 84f6 39bd d101 93bd
00000300: 3526 39bc eee4 863d 598b 4e3d a05d 103e
00000310: 431a 4a3e ddd3 ef3d 0486 213e 94eb 313d
00000320: 4a28 f7bd f68f 10bd 08ba 4b3e 4623 6ebd
00000330: d43f 073e 0273 46bc b1f4 2e3e 17cf 043e
00000340: 5666 073e 9ad0 e0bd a8ad 3a3e 16d8 153e
00000350: c5f2 3c3b 0627 983d 73d9 6bbd 3ef9 14be
00000360: c1c7 06bd 1b17 1abe c147 103e 3550 6e3d
00000370: ccb1 f5bd a21a 413e 1a14 1fbe 68ea 5fbd
00000380: 28da 2abe a0b2 82bc 29af f13c 6d28 a8bd
00000390: c115 843d 20ce 24be 5091 67bd 2181 04be
000003a0: f084 ebba 4683 033d 1d0f b0bd 6973 a23d
000003b0: 96ea f03d 4929 f5bd cb2f 6e3c 8a9a 793d
000003c0: 727e 94bd 42c2 adbd c112 0e3d 58d1 24be
000003d0: 9fbc 5f3d 05c2 093e e2b5 b63d cf42 9d3c
000003e0: f5ec e8bd 94ea 483d 8c93 2abe 9f5f cfbc
000003f0: 31f9 c93d 1da0 893d 110d 1f3d d838 903b

decoder.10.bias f4 [3]
0.1123206 -0.041810974 0.0798991
00000000: 5808 e63d fc41 2bbd 24a2 a33d
