models/encoder_v1.onnx (onnx, 425299 bytes, 10 tensors)

encoder.0.weight f4 [32, 3, 3, 3]
-0.016334899 0.22651154 0.11100451 -0.049573883 0.1877702 -0.021617709 0.012308091 0.16985776
0.15789226 0.09076533 -0.13472116 0.12639719 -0.00085626525 0.16969895 -0.1214869 -0.13080123
-0.14354092 0.116520055 -0.12936136 -0.07723716 0.16591561 0.09665908 0.21177258 0.031708
0.058751777 0.12686998 0.08044315 0.16996337 0.15647258 0.03364975 0.05626302 0.1525299
-0.12154484 0.06897121 -0.017332995 -0.15035382 -0.10223498 0.11669697 -0.12681863 0.103462264
-0.07628117 -0.17208366 0.16312201 -0.13219152 -0.14193657 0.18433996 0.17224851 0.04139208
-0.16880152 -0.13090377 0.14458098 -0.049586616 -0.07728451 -0.1488049 -0.081511416 -0.07388865
-0.11932165 -0.1250601 -0.026691688 0.013574089 -0.0043385928 0.19540508 -0.0716193 0.08011243
-0.1374967 -0.16491285 0.1788253 0.09281331 -0.09295767 -0.20966707 0.08785422 -0.0717737
-0.010049337 0.08332778 -0.18729444 -0.07656377 -0.09997947 0.12076766 -0.05091828 -0.16729748
-0.1579753 -0.027974792 0.1414208 -0.07548056 0.2154511 -0.06629631 -0.020167783 0.040528167
-0.027420731 -0.15845047 0.07537884 0.20111725 0.12381997 0.11356129 -0.024438992 -0.13569641
0.110799566 -0.09887755 -0.07144691 -0.12349725 0.19246022 0.10452272 -0.045905802 0.19277585
0.09267509 0.16907555 -0.025686339 0.046691228 -0.08604955 -0.1661145 -0.04968741 0.03524871
0.17799804 0.16039003 -0.007357005 0.15812427 0.23697856 -0.045206573 0.020253748 -0.032118913
-0.055885028 -0.076612 0.009090174 0.108914584 0.18522725 0.1797356 -0.07066934 0.16270164
-0.15844123 0.12527737 0.2071698 0.07327962 0.16027804 -0.060395934 0.1884817 -0.048422668
0.003574594 -0.05397253 -0.03609991 0.23446767 -0.10463957 -0.10378585 0.024686342 -0.121561065
0.08484941 -0.007254462 -0.08660257 -0.19882254 -0.084050104 -0.1867375 0.13687031 -0.15732573
-0.0129291685 0.065086596 -0.1127566 0.17033698 -0.17358838 0.06822123 0.09622009 0.16901037
-0.1775943 -0.14251655 0.08855333 -0.0017897136 -0.06334594 0.053792197 0.13872074 0.14208385
0.09729663 0.05116745 0.08677399 0.19253713 0.12596525 0.020501101 -0.07319822 -0.11120479
-0.017528003 0.042940322 0.17767105 0.099963546 0.15007782 -0.11428447 -0.18022949 -0.027451845
0.19108333 0.043285023 -0.118103504 0.24678382 0.22660522 -0.13362965 -0.13748449 -0.071638346
0.03667577 -0.022758871 0.1257605 0.009659183 -0.1030551 0.16745928 -0.13591175 0.046786707
-0.10614567 0.10047814 -0.0151339555 0.097067595 -0.17228287 0.038338326 0.19612145 -0.063456155
-0.19804424 -0.14843617 -0.101798065 0.18768485 0.14376368 -0.18459204 0.03712991 0.084002316
0.12411739 0.15532625 0.020533076 0.19095205 0.06779037 0.20643137 0.1624786 0.17756017
-0.07527952 0.07344854 -0.14288774 0.1569321 -0.04172084 -0.016227067 -0.12285404 -0.04729868
0.17276801 0.13986464 -0.049310423 -0.1141833 -0.0667702 0.11216779 0.17841786 -0.015152855
0.12751152 -0.08519163 0.10458036 -0.058281153 0.02331556 -0.23196518 0.14876962 -0.10165663
-0.22659472 0.1166014 -0.1285566 -0.21913925 -0.019805934 -0.08701383 -0.18144849 0.12898096
00000000: c4d0 85bc a4f2 673e 5556 e33d fc0d 4bbd
00000010: d546 403e 9f17 b1bc e0a7 493c 31ef 2d3e
00000020: 82ae 213e 2ce3 b93d 58f4 09be 446e 013e
00000030: fd76 60ba 90c5 2d3e 20ce f8bd c2f0 05be
00000040: 64fc 12be 11a2 ee3d 4e77 04be 842e 9ebd
00000050: c8e5 293e 32f5 c53d e9da 583e 3fe0 013d
00000060: b4a5 703d 34ea 013e 61bf a43d e10a 2e3e
00000070: 593a 203e 52d4 093d 0d74 663d cc30 1c3e
00000080: 80ec f8bd c740 8d3d edfd 8dbc 5af6 19be
00000090: 9360 d1bd d2fe ee3d bedc 01be 06e4 d33d
000000a0: 4d39 9cbd b336 30be 7509 273e 375d 07be
000000b0: d257 11be 9dc3 3c3e ea61 303e be8a 293d
000000c0: 4eda 2cbe a30b 06be 090d 143e 561b 4bbd
000000d0: 5747 9ebd 5060 18be 75ef a6bd ef52 97bd
000000e0: e95e f4bd c10f 00be 87a8 dabc db65 5e3c
000000f0: c12a 8ebb 4518 483e 24ad 92bd fc11 a43d
00000100: efcb 0cbe eade 28be fb1d 373e e814 be3d
00000110: 9760 bebd f7b2 56be eaec b33d 17fe 92bd
00000120: f9a5 24bc c1a7 aa3d 1dca 3fbe 77cd 9cbd
00000130: 09c2 ccbd 0955 f73d b08f 50bd 0850 2bbe
00000140: 47c4 21be 642b e5bc 9dd0 103e 8d95 9abd
00000150: 379f 5c3e 5cc6 87bd e836 a5bc dd00 263d
00000160: 71a1 e0bc d740 22be 3960 9a3d aef1 4d3e
00000170: 5395 fd3d d292 e83d 4834 c8bc 00f4 0abe
00000180: e2ea e23d 5080 cabd c252 92bd 20ec fcbd
00000190: 4b14 453e 0210 d63d b907 3cbd 0867 453e
000001a0: 70cc bd3d 2422 2d3e 286c d2bc 4d3f 3f3d
000001b0: bf3a b0bd eb19 2abe 0785 4bbd f460 103d
000001c0: 1e45 363e 493d 243e 0813 f1bb 54eb 213e
000001d0: 82aa 723e 872a 39bd 30eb a53c 1f8f 03bd
000001e0: b3e7 64bd c1e6 9cbd f4ee 143c 9c0e df3d
000001f0: 36ac 3d3e 9c0c 383e 16bb 90bd 429b 263e
00000200: 6b3e 22be b648 003e 5224 543e a013 963d
00000210: ed1f 243e ba61 77bd 5901 413e d956 46bd
00000220: bc43 6a3b 4d12 5dbd 80dd 13bd 4b18 703e
00000230: 454d d6bd ad8d d4bd 033b ca3c 02f5 f8bd
00000240: 87c5 ad3d d7b6 edbb b05c b1bd 2398 4bbe
00000250: 7622 acbd 1d38 3fbe bb27 0c3e ff19 21be
00000260: ddd4 53bc 1f4c 853d efec e6bd d16c 2e3e
00000270: 27c1 31be 92b7 8b3d 0a0f c53d 0e11 2d3e
00000280: 48db 35be dcef 11be 735b b53d d394 eaba
00000290: 84bb 81bd 3555 5c3d cf0c 0e3e 6e7e 113e
000002a0: 7543 c73d f694 513d 90b6 b13d 7428 453e
000002b0: 09fd 003e edf1 a73c f3e8 95bd 56bf e3bd
000002c0: e396 8fbc 31e2 2f3d 66ef 353e b0b9 cc3d
000002d0: 00ae 193e fa0d eabd 148e 38be b1e2 e0bc
000002e0: 59ab 433e a34b 313d 40e0 f1bd e6b4 7c3e
000002f0: 330b 683e 36d6 08be bcc8 0cbe 20b7 92bd
00000300: 5539 163d d070 babc 5cc7 003e 8d41 1e3c
00000310: 8d0e d3bd 727a 2b3e 732c 0bbe 6ba3 3f3d
00000320: e762 d9bd 7cc7 cd3d 69f4 77bc 60cb c63d
00000330: ec6a 30be a608 1d3d 10d4 483e 4df5 81bd
00000340: 1ccc 4abe a7ff 17be 817b d0bd 7530 403e
00000350: c936 133e b205 3dbe 8815 183d 6809 ac3d
00000360: 4231 fe3d d80d 1f3e fb34 a83c ef88 433e
00000370: add5 8a3d bf62 533e ca60 263e 55d2 353e
00000380: 262c 9abd 306c 963d 2a51 12be cfb2 203e
00000390: 79e3 2abd a0ee 84bc e69a fbbd 43bc 41bd
000003a0: 19ea 303e ad38 0f3e baf9 49bd efd8 e9bd
000003b0: d1be 88bd 3ab8 e53d 2cb3 363e ae43 78bc
000003c0: 6192 023e f378 aebd 3a2e d63d 38b8 6ebd
000003d0: 4600 bf3c 4888 6dbe 1057 183e 5a31 d0bd
000003e0: 7208 68be b7cc ee3d 57a4 03be 0a66 60be
000003f0: 0e40 a2bc 4f34 b2bd a2cd 39be 9613 043e

encoder.0.bias f4 [32]
0.13830788 0.19684061 0.15923859 -0.057344183 0.1846821 0.2401812 0.05095571 0.075470924
0.0522512 -0.19145156 0.085997395 0.105665736 -0.1715149 0.124046095 -0.027423285 0.031165302
-0.10828364 0.14119457 0.055898342 0.11767886 -0.023969896 -0.071368225 -0.14348607 0.1792313
-0.09262868 -0.08282322 0.21424589 0.047546774 0.1875929 0.08094879 0.063148804 -0.19850512
00000000: 95a0 0d3e 9690 493e 710f 233e bce1 6abd
00000010: 4e1d 3d3e 0ff2 753e efb6 503d 8090 9a3d
00000020: 5b05 563d e10b 44be 671f b03d 4767 d83d
00000030: 9aa1 2fbe e10b fe3d cca6 e0bc 604e ff3c
00000040: d0c3 ddbd 4f95 103e a9f5 643d 9d01 f13d
00000050: 845c c4bc 8129 92bd 03ee 12be 6988 373e
00000060: 1bb4 bdbd 389f a9bd 4663 5b3e 68c0 423d
00000070: 5a18 403e 7bc8 a53d 2954 813d ed44 4bbe

encoder.2.weight f4 [64, 32, 3, 3]
0.0731003 -0.01423951 -0.018540485 0.073930874 0.029632505 0.045163326 -0.042413693 0.017011784
0.027869396 -0.0068512065 0.067217365 -0.008151309 0.045695268 0.06254047 0.075872645 0.017689513
0.03527612 0.03288477 -0.034369383 -0.013151536 -0.056752216 -0.05684506 0.013434557 0.011219326
0.0024303854 -0.039703295 -0.06615698 0.0010411994 -0.06393724 -0.077966824 0.02987963 0.0037870435
-0.059292376 -0.048596676 -0.064433105 -0.025589013 0.06875706 -0.04459197 0.034650758 0.017233534
0.008912332 0.049017157 0.055082828 -0.008516428 -0.008744358 -0.041335896 0.016725767 -0.072741926
-0.01988574 -0.03951007 -0.008099678 0.06455339 0.03443314 -0.043280408 -0.00059146836 0.017833527
0.019824486 0.04225758 0.048141308 0.05060008 0.020557512 0.013951489 -0.015593773 -0.063172586
-0.05978035 -0.057051487 -0.060881387 0.0039316304 -0.03070623 -0.070843376 0.004094289 -0.08075932
0.06568099 0.058619846 -0.042758573 -0.008415256 -0.021500355 0.0064023375 0.04931323 0.0008356832
0.070147626 -0.061465506 0.023518551 -0.012742558 -0.03316422 0.0042856648 0.0028300225 -0.0017046296
-0.052865054 -0.011319762 0.005546053 0.042795345 -0.020062398 0.06973031 0.0014180021 0.060365234
-0.009070157 0.013440149 0.052274216 0.06455592 0.032572664 -0.009906179 -0.02971012 0.066471346
0.02407369 0.016530978 0.0051997798 -0.024171434 0.022793964 -0.0004683269 0.04396981 -0.07010804
-0.017102646 -0.0723515 0.00666916 0.01775423 0.033436563 -0.0022716757 -0.03361244 -0.058108006
-0.060885847 0.0036680102 -0.045940023 -0.034580775 -0.00588705 -0.028807841 -0.033046123 -0.014855022
-0.052676097 0.022622759 -0.015710764 -0.07364067 0.010896216 -0.03887864 -0.059352845 -0.038050417
-0.06082654 -0.009146687 -0.009464623 -0.022834081 -0.018330278 -0.05023036 -0.059845578 -0.0573794
0.010292321 0.03597755 0.029184196 -0.0019894398 -0.025378931 0.02275137 0.024471754 -0.118819
0.061939523 -0.023164522 0.06050168 -0.04121221 0.049722623 0.015830483 0.022574594 0.021567406
-0.026609669 0.06392717 -0.035185028 0.064807326 -0.03434249 0.05163153 -0.022993293 0.033325724
0.004048471 -0.047087446 -0.074171714 -0.021107083 0.014272662 0.02015105 0.054591686 0.05642521
-0.0025381786 0.04109611 0.069956355 0.021999102 -0.03710724 0.02627416 0.010389518 -0.0011515581
0.02681231 -0.020585436 0.05335432 0.010407099 -0.032863144 0.035708904 0.0053751403 -0.038456205
-0.039310142 -0.036392383 0.03777971 -0.0476398 -0.023296932 -0.043878533 -0.010088935 -0.05551028
-0.018588658 -0.03359738 -0.04838947 -0.036901772 0.012845286 0.011780768 -0.03918172 0.066400506
0.043235764 0.0073129553 -0.03840193 0.0027287763 -0.016672052 -0.01944297 -0.0076018143 0.034618966
0.0459873 -0.011383278 0.08407545 -0.01644255 0.007057547 0.033582628 -0.056367043 0.04125606
0.005093544 -0.040992886 0.04179347 0.0008127069 0.036918942 0.028771626 -0.061369393 -0.0017419367
0.053419597 0.029973658 -0.00437641 -0.025868135 0.027053498 0.007480356 -0.01565665 -0.006456268
0.017625548 0.068567164 0.038755547 -0.012846036 -0.043716088 0.0055824 -0.022411808 -0.032167077
0.055071507 0.06133065 -0.04180142 0.02639621 0.06709427 0.050380647 -0.034947332 0.02264244
00000000: 9cb5 953d d54c 69bc 37e2 97bc 1269 973d
00000010: debf f23c 2efd 383d fbb9 2dbd 4c5c 8b3c
00000020: 5c4e e43c 1680 e0bb 42a9 893d 118d 05bc
00000030: f62a 3b3d 3815 803d 1e63 9b3d 99e9 903c
00000040: b17d 103d 2eb2 063d e9c6 0cbd 8a79 57bc
00000050: 0375 68bd 5ed6 68bd 9e1c 5c3c 44d1 373c
00000060: 1a47 1f3b ec9f 22bd 507d 87bd db78 883a
00000070: 87f1 82bd 12ad 9fbd 20c6 f43c 0c30 783b
00000080: 90dc 72bd 4f0d 47bd 81f5 83bd 0da0 d1bc
00000090: 80d0 8c3d 12a6 36bd f4ed 0d3d 572d 8d3c
000000a0: 0805 123c 37c6 483d 889e 613d 7d88 0bbc
000000b0: 7f44 0fbc d44f 29bd 7a04 893c b8f9 94bd
000000c0: 6be7 a2bc 50d5 21bd 83b4 04bc 9134 843d
000000d0: c409 0d3d cc46 31bd c50c 1bba 9e17 923c
000000e0: f666 a23c 4916 2d3d d22f 453d 0842 4f3d
000000f0: 3a68 a83c c994 643c 067d 7fbc a160 81bd
00000100: 3edc 74bd d2ae 69bd c35e 79bd e8d4 803b
00000110: a28b fbbc 5516 91bd 6329 863b 2465 a5bd
00000120: c183 863d 5d1b 703d 9d23 2fbd 24e0 09bc
00000130: 8321 b0bc b3ca d13b abfc 493d c011 5b3a
00000140: 8fa9 8f3d 41c3 7bbd faa9 c03c 29c6 50bc
00000150: 35d7 07bd c36e 8c3b e677 393b e16d dfba
00000160: 0789 58bd 8676 39bc aabb b53b 2c4a 2f3d
00000170: e659 a4bc c4ce 8e3d 41dc b93a 8941 773d
00000180: ff9a 14bc 1234 5c3c 7d1d 563d e535 843d
00000190: ea6a 053d 874d 22bc a362 f3bc 2122 883d
000001a0: 3036 c53c f96b 873c ea62 aa3b 2c03 c6bc
000001b0: 68ba ba3c c689 f5b9 b019 343d ce94 8fbd
000001c0: d91a 8cbc 062d 94bd f888 da3b 5271 913c
000001d0: c7f4 083d 65e0 14bb 33ad 09bd a902 6ebd
000001e0: 7063 79bd 0063 703b 9b2b 3cbd 92a4 0dbd
000001f0: 28e8 c0bb 6cfe ebbc 5f5b 07bd 7a62 73bc
00000200: e4c2 57bd 5d53 b93c dcb3 80bc ebd0 96bd
00000210: 0b86 323c 353f 1fbd f81b 73bd c1da 1bbd
00000220: 4025 79bd fcdb 15bc 8211 1bbc 8a0e bbbc
00000230: 6129 96bc 5abe 4dbd a320 75bd a906 6bbd
00000240: 20a1 283c 325d 133d b213 ef3c 4361 02bb
00000250: 7ae7 cfbc 1561 ba3c fd78 c83c 6057 f3bd
00000260: 4cb4 7d3d 86c3 bdbc 9cd0 773d 22ce 28bd
00000270: f3a9 4b3d eeae 813c 5bee b83c 21ae b03c
00000280: 85fc d9bc 40ec 823d 2d1e 10bd b4b9 843d
00000290: b6aa 0cbd 957b 533d 6e5c bcbc 8e80 083d
000002a0: 09a9 843b c4de 40bd 57e7 97bd c3e8 acbc
000002b0: e2d7 693c d113 a53c 889b 5f3d 1f1e 673d
000002c0: 9257 26bb 6554 283d 4745 8f3d 7637 b43c
000002d0: c3fd 17bd e83c d73c cc38 2a3c e1ef 96ba
000002e0: 7da5 db3c caa2 a8bc 0f8a 5a3d 8982 2a3c
000002f0: 819b 06bd 8043 123d f221 b03b 4184 1dbd
00000300: ac03 21bd 2e10 15bd e6be 1a3d f321 43bd
00000310: 35d9 bebc fab9 33bd 0f4c 25bc bf5e 63bd
00000320: 3e47 98bc 689d 09bd 0934 46bd 5026 17bd
00000330: 0975 523c 1f04 413c 037d 20bd fdfc 873d
00000340: fc17 313d 84a1 ef3b 584b 1dbd 45d5 323b
00000350: d493 88bc dd46 9fbc a418 f9bb 9ecc 0d3d
00000360: 2e5d 3c3d ee80 3abc c02f ac3d 87b2 86bc
00000370: ff42 e73b f08d 093d 21e1 66bd 1dfc 283d
00000380: bee7 a63b 28e8 27bd a12f 2b3d d60b 553a
00000390: 5138 173d 79b2 eb3c 795e 7bbd b251 e4ba
000003a0: 82ce 5a3d 518b f53c fd67 8fbb 69e9 d3bc
000003b0: 4c9f dd3c c61d f53b 6042 80bc 1a8f d3bb
000003c0: 7463 903c f16c 8c3d 23be 1e3d 2e78 52bc
000003d0: a40f 33bd 91ec b63b f898 b7bc a0c1 03bd
000003e0: a992 613d d935 7b3d f737 2bbd dd3c d83c
000003f0: b868 893d f05b 4e3d ef24 0fbd a37c b93c

encoder.2.bias f4 [64]
0.049413826 0.021648144 0.05001009 0.055482943 -0.047242288 0.09289437 0.030926017 0.03877363
-0.055059273 0.0205952 -0.010152529 -0.02958208 0.027773984 0.06227135 -0.06187048 -0.05447167
0.029432608 -0.0022051367 -0.018340334 0.036812983 0.047439966 0.008098611 0.04330602 0.004266718
0.002532495 -0.033458192 0.034224246 -0.017428065 -0.050040923 -0.015202204 -0.0029185864 0.051866375
0.066874176 0.017932551 -0.009041288 0.052467328 -0.014402644 -0.016279927 0.015281589 -0.004721259
-0.0793599 -0.052112527 -0.059171256 -0.009881399 0.055445895 -0.024269147 -0.008651798 0.075317115
0.07807043 -0.07121643 -0.062206976 0.045784693 -0.014936214 -0.038391534 -0.049159903 -0.052278847
0.041664604 -0.023442034 0.020500151 -0.022479486 0.07320269 -0.043401826 0.023088556 -0.018068688
00000000: 2766 4a3d 7357 b13c 61d7 4c3d 1542 633d
00000010: 2181 41bd 673f be3d 8f58 fd3c 19d1 1e3d
00000020: d585 61bd 44b7 a83c cb56 26bc 1e56 f2bc
00000030: 4486 e33c 3e10 7f3d e76b 7dbd b01d 5fbd
00000040: a71c f13c 0e84 10bb 783e 96bc 36c9 163d
00000050: 6950 423d 09b0 043c a761 313d d3cf 8b3b
00000060: 37f8 253b 750b 09bd b92e 0c3d 4dc5 8ebc
00000070: b6f7 4cbd aa12 79bc c145 3fbb d671 543d
00000080: 54f5 883d 49e7 923c e921 14bc fbe7 563d
00000090: 11f9 6bbc 7b5d 85bc a15f 7a3c cbb4 9abb
000000a0: 7187 a2bd f273 55bd 8f5d 72bd 97e5 21bc
000000b0: 3c1b 633d 17d0 c6bc 45c0 0dbc dc3f 9a3d
000000c0: 64e3 9f3d ebd9 91bd becc 7ebd bb88 3b3d
000000d0: 06b7 74bc 7140 1dbd e55b 49bd 5822 56bd
000000e0: 81a8 2a3d 8209 c0bc efef a73c e626 b8bc
000000f0: 4beb 953d 1dc6 31bd 3624 bd3c c904 94bc

encoder.4.weight f4 [128, 64, 3, 3]
-0.03321206 0.031447724 0.01991921 -0.03743399 0.02881053 0.017087864 -0.03724382 0.010121013
-0.015118828 0.039840743 0.032298196 0.03469457 0.022418626 0.008567431 -0.014880186 -0.006727892
0.038216885 0.032397393 -0.009955624 -0.023818966 0.027997188 -0.032792326 0.010116095 0.023172904
0.040223293 -0.0004420231 -0.006042261 0.055151086 -0.017827282 0.008474613 0.010866958 0.032732323
-0.025645295 -0.013441556 0.03853557 0.007262941 0.027430372 -0.040313426 0.019688398 -0.020854358
0.046107072 0.00964127 0.031122124 0.013231009 -0.008596057 0.043581076 0.008750189 -0.040947165
0.00013273122 -0.04457278 0.006856697 -0.022797402 -0.02337249 0.04165276 0.014689649 -0.008313986
-0.025314013 -0.0009432149 -0.0064627356 0.021106277 -0.004234083 0.009386984 -0.009544696 0.012031153
0.024262745 -0.015084679 0.021334864 0.009655793 -0.022718467 -0.03682434 0.026070664 -0.05120218
-0.00204563 -0.022025065 0.03964134 0.015250245 -0.03579582 0.028831583 -0.027278045 -0.020876043
-0.0048702704 -0.024962176 0.004586325 -0.04607495 0.067010365 -0.068473876 -0.017307566 -0.05281279
-0.04260959 -0.030664833 0.042933024 0.020301552 -0.03722102 0.055500384 -0.015836004 -0.0592003
0.026641868 -0.02943386 -0.003772088 0.016833782 -0.037792932 -0.049504284 -0.040136456 -0.022273252
0.0049626855 -0.019127458 -0.015554391 -0.041005835 0.029827274 -0.0026160355 0.008471752 0.020633336
0.028139759 0.019364385 0.025222687 -0.025815448 -0.015785007 0.0062988726 0.015209723 -0.009266777
-0.02000129 0.032842416 -0.015036003 0.01483291 -0.013847967 -0.01621739 -0.007949888 0.019233985
0.00024194986 -0.022144126 0.05464991 0.03748952 0.02300539 -0.0031221418 0.009197402 0.0075043766
-0.012453936 0.008448405 -0.011374328 -0.023418833 -0.026963353 0.030753393 0.006448047 0.036719054
-0.000865017 -0.0071878517 -0.023293031 -0.007689029 0.012707874 -0.012054334 0.032594558 -0.01850214
0.030480588 -0.042660654 0.0032518127 0.023223627 0.010814963 -0.011043545 0.039342627 -0.008042522
-0.0178195 0.045755632 0.040095575 0.039156575 -0.027561016 -0.018691901 0.0075877723 -0.0067759496
-0.01330444 -0.021091677 0.01864065 0.03745609 -0.007963463 -0.0024209584 -0.025899967 0.022703066
0.04148837 -0.008193572 0.033530302 0.05226465 0.0119293975 -0.032943875 0.006906866 0.043556873
0.009743831 0.031006465 -0.0047867526 0.02660814 -0.024710195 -0.004842715 0.0072644907 -0.0030385244
-0.0053440523 0.020329177 0.030163761 -0.006113345 -0.023687143 -0.00875632 0.025606522 0.040030275
0.004482173 0.033293586 0.0080682775 0.0015299409 -0.0340508 -0.009118461 0.026774649 0.04151128
0.018525274 0.048106547 -0.018021852 -0.028413376 -0.0057015656 0.016202662 -0.022678073 -0.023129925
-0.0077718673 0.032639045 -0.012256634 -0.0034433028 0.021932965 0.049051184 -0.016899148 0.029303068
-0.0077501815 0.004053356 -0.005580376 0.002416853 -0.0049504535 -0.0015410823 0.038905114 0.031372126
-0.01936502 0.032074027 -0.016533218 0.031662785 -0.00045655968 -0.0040703947 -0.009434321 0.032493625
-0.021765396 -0.021375572 -0.034949776 0.010345312 0.037059747 0.00029498982 0.022382557 0.014069829
-0.02563774 -0.042935 0.035544317 0.035813227 0.017614236 0.04822772 -0.019043762 -0.0030267965
00000000: 5e09 08bd 54cf 003d 9c2d a33c 6254 19bd
00000010: 1004 ec3c d9fb 8b3c fa8c 18bd 9bd2 253c
00000020: f6b4 77bc 0c30 233d 1d4b 043d e51b 0e3d
00000030: 44a7 b73c 695e 0c3c 06cc 73bc a675 dcbb
00000040: 4f89 1c3d 21b3 043d ea1c 23bc fe1f c3bc
00000050: 5c5a e53c 3f51 06bd fabd 253c 1ad5 bd3c
00000060: 2ec1 243d 56bf e7b9 29fe c5bb 1be6 613d
00000070: 850a 92bc 1ad9 0a3c 530b 323c 5412 063d
00000080: 1516 d2bc f939 5cbc 79d7 1d3d f7fd ed3b
00000090: a9b5 e03c b11f 25bd 9049 a13c c2d6 aabc
000000a0: c5da 3c3d 6bf6 1d3c d3f3 fe3c e0c6 583c
000000b0: 7ad6 0cbc 1282 323d f45c 0f3c 37b8 27bd
000000c0: c42d 0b39 f391 36bd 25ae e03b 9ec1 babc
000000d0: aa77 bfbc 169c 2a3d dbac 703c 6237 08bc
000000e0: 555f cfbc 1542 77ba 5bc5 d3bb 12e7 ac3c
000000f0: 10be 8abb ddcb 193c 5b61 1cbc 501e 453c
00000100: aac2 c63c bb25 77bc 74c6 ae3c 5533 1e3c
00000110: 141c babc 1ed5 16bd 2592 d53c 61b9 51bd
00000120: fa0f 06bb e96d b4bc f55e 223d 2adc 793c
00000130: a39e 12bd 3630 ec3c 3576 dfbc 3c04 abbc
00000140: ca96 9fbb 7a7d ccbc e248 963b 16b9 3cbd
00000150: bb3c 893d 083c 8cbd 99c8 8dbc 3952 58bd
00000160: 6587 2ebd d134 fbbc 8ada 2f3d 714f a63c
00000170: 1175 18bd 5f54 633d 82ba 81bc 047c 72bd
00000180: 0c40 da3c 471f f1bc 2335 77bb 00e7 893c
00000190: c3cc 1abd 01c5 4abd 2066 24bd 6576 b6bc
000001a0: 069e a23b 30b1 9cbc d8d7 7ebc bcf5 27bd
000001b0: 5458 f43c cb71 2bbb 1acd 0a3c 3e07 a93c
000001c0: 5a85 e63c 0fa2 9e3c cf9f ce3c eb7a d3bc
000001d0: 8f4f 81bc c666 ce3b 3432 793c aed3 17bc
000001e0: bfd9 a3bc c585 063d 9159 76bc bc05 733c
000001f0: 95e2 62bc 55da 84bc 3f40 02bc 9790 9d3c
00000200: ecb3 7d39 9967 b5bc 96d8 5f3d 9c8e 193d
00000210: cd75 bc3c d99c 4cbb b3b0 163c 46e7 f53b
00000220: 980b 4cbc 2e6b 0a3c 645b 3abc dad8 bfbc
00000230: 40e2 dcbc 8aee fb3c 234a d33b b866 163d
00000240: 4fc2 62ba 1288 ebbb 07d1 bebc 40f4 fbbb
00000250: b034 503c 8b7f 45bc df81 053d cd91 97bc
00000260: 6db2 f93c f0bc 2ebd 5d1c 553b 7a3f be3c
00000270: 3e31 313c fcef 34bc bc25 213d c8c4 03bc
00000280: 33fa 91bc 426a 3b3d 423b 243d a562 203d
00000290: a4c7 e1bc c21f 99bc d9a2 f83b c908 debb
000002a0: defa 59bc 74c8 acbc 47b4 983c 8f6b 193d
000002b0: 2f79 02bc f1a8 1ebb 2b2c d4bc c8fb b93c
000002c0: b6ef 293d 553e 06bc 1257 093d 7513 563d
000002d0: 8573 433c 28f0 06bd fe52 e23b b168 323d
000002e0: 97a4 1f3c 4501 fe3c 31da 9cbb 50f9 d93c
000002f0: 096d cabc a3af 9ebb f70a ee3b fb21 47bb
00000300: 291d afbb 6089 a63c fe19 f73c 7452 c8bb
00000310: 8a0b c2bc ab76 0fbc c5c4 d13c c9f6 233d
00000320: 31df 923b db5e 083d cf30 043c 4c88 c83a
00000330: da78 0bbd 9965 15bc 8256 db3c bb07 2a3d
00000340: 51c2 973c 5f0b 453d 90a2 93bc 2bc3 e8bc
00000350: 33d4 babb 72bb 843c 5ec7 b9bc f87a bdbc
00000360: 26ab febb 85b0 053d 0dd0 48bc 09a9 61bb
00000370: c3ac b33c e5e9 483d 1570 8abc fd0c f03c
00000380: 3cf5 fdbb 04d2 843b 96db b6bb 1164 1e3b
00000390: 6a37 a2bb 24fe c9ba f85a 1f3d 0f80 003d
000003a0: 64a3 9ebc 0e60 033d ac70 87bc d6b0 013d
000003b0: 675e efb9 f260 85bb 6992 1abc 0918 053d
000003c0: 584d b2bc d31b afbc 7f27 0fbd 627f 293c
000003d0: f6cb 173d dda8 9a39 a05b b73c 2485 663c
000003e0: 3d06 d2bc 9cdc 2fbd eb96 113d e4b0 123d
000003f0: bb4b 903c 6e8a 453d aa01 9cbc 385d 46bb

encoder.4.bias f4 [128]
0.03246969 -0.012350223 0.05682499 0.043406572 0.062520094 0.021418523 -0.026323894 0.02474361
0.04071637 0.023928126 0.0035440647 -0.034635976 -0.038262323 0.019409144 -0.04513804 -0.0031622536
0.024892256 -0.016106954 0.024896733 -0.025315588 -0.023148544 0.06520074 0.008696303 0.024533736
0.014926177 0.04960638 -0.0025198592 -0.002798563 -0.007881758 0.027124062 -0.010090218 -0.006292396
0.06752848 0.014009825 0.02144628 -0.008068924 0.04110961 0.0037138497 -0.043288417 -0.03800786
-0.048582394 0.041295983 -0.004070235 0.046086438 -0.014396569 0.022333065 0.01397135 -0.037115447
-0.035245616 0.06760538 0.0050896024 -0.010729343 0.006345022 0.030438868 0.011007304 0.014871
0.008441946 -0.0028495244 0.023272991 0.029437227 0.001332855 -0.0140453465 0.030088827 0.008068869
-0.027124986 -0.0148552265 0.0059067286 0.06532806 -0.0051493263 0.055438295 0.0036494408 -0.024149073
-0.0041292766 0.014653951 0.0063921018 -0.006073702 0.016534382 -0.02277999 -0.019559864 0.004679335
0.02888522 0.045770906 0.013596976 0.022668736 0.05775305 0.05995356 -0.039265234 0.056252662
0.06320578 -0.030834176 0.021539917 0.017938053 0.0071915947 -0.008617552 -0.066903405 0.005113151
-0.010359333 0.015411544 0.06541056 0.007136447 -0.039509237 0.032905698 0.032579686 0.062373452
-0.02345792 0.037284553 0.0096942475 0.05044614 0.0068461713 -0.029265279 -0.02783706 0.061764114
0.058709793 0.027678426 -0.049798958 -0.012356972 -0.047288157 -0.03264509 0.043412685 0.02251095
-0.006507371 0.041228343 0.013563049 -0.0013793914 0.059889592 0.0002100559 -0.020411799 0.0041559157
00000000: f0fe 043d 9758 4abc 52c1 683d 17cb 313d
00000010: 890a 803d e675 af3c 35a5 d7bc 1cb3 ca3c
00000020: 35c6 263d eb04 c43c 8a43 683b 74de 0dbd
00000030: f4b8 1cbd edff 9e3c aae2 38bd d03d 4fbb
00000040: d8ea cb3c bbf2 83bc 3cf4 cb3c a362 cfbc
00000050: 04a2 bdbc f787 853d f07a 0e3c f9fa c83c
00000060: ed8c 743c 0f30 4b3d 3924 25bb 1968 37bb
00000070: 7d22 01bc 4833 de3c 7151 25bc 7230 cebb
00000080: 5f4c 8a3d 7789 653c 1cb0 af3c 8533 04bc
00000090: 8d62 283d 0f64 733b 324f 31bd 21ae 1bbd
000000a0: 55fe 46bd fa25 293d 9b5f 85bb 22c5 3c3d
000000b0: 96df 6bbc d5f3 b63c 17e8 643c 5e06 18bd
000000c0: b55d 10bd b174 8a3d aec6 a63b 20ca 2fbc
000000d0: e7e9 cf3b ef5a f93c fb57 343c 7fa5 733c
000000e0: 1650 0a3c 16bf 3abb 00a7 be3c 5726 f13c
000000f0: 31b3 ae3a 741e 66bc d87c f63c 4a33 043c
00000100: 3835 debc 5663 73bc 3b8d c13b b8ca 853d
00000110: aebb a8bb 4413 633d 752b 6f3b 47d4 c5bc
00000120: e24e 87bb 2017 703c d674 d13b e805 c7bb
00000130: 1d73 873c 1a9d babc 023c a0bc 1b55 993b
00000140: b2a0 ec3c 467a 3b3d dac5 5e3c c9b3 b93c
00000150: 768e 6c3d dd91 753d 95d4 20bd 3169 663d
00000160: 0872 813d f497 fcbc 7b74 b03c d3f2 923c
00000170: 78a7 eb3b a230 0dbc a704 89bd 388c a73b
00000180: 31ba 29bc b380 7c3c f9f5 853d dbd8 e93b
00000190: 70d4 21bd 20c8 063d 4772 053d 4e7b 7f3d
000001a0: d32a c0bc b0b7 183d 9fd4 1e3c 9da0 4e3d
000001b0: d955 e03b bdbd efbc 8c0a e4bc 5efc 7c3d
000001c0: ae79 703d debd e23c fef9 4bbd e674 4abc
000001d0: 3ab1 41bd dcb6 05bd 80d1 313d e268 b83c
000001e0: c93b d5bb 0ddf 283d 8d37 5e3c b2cc b4ba
000001f0: ca4e 753d 7442 5c39 a536 a7bc 592e 883b

encoder.6.weight f4 [32, 128, 1, 1]
0.049443807 -0.14092052 0.03768313 -0.048370715 -0.053848974 0.070917964 0.060672432 0.019036926
-0.10873636 0.014574021 -0.006215814 -0.08736338 0.051979754 0.020525262 0.034404516 0.045902528
-0.052417662 0.11618651 -0.09902189 0.032879293 -0.05801682 -0.09716557 0.017659534 0.034466565
-0.09554609 -0.04756612 -0.06790135 0.03715979 -0.09911094 -0.084536165 -0.023659758 0.032781094
0.060894497 0.025121393 -0.042678226 0.05163208 -0.041684125 -0.017530324 0.0015648986 0.07106196
0.059886176 -0.018918646 -0.13515565 -0.013342484 0.07603048 0.40656334 -0.17636411 -0.321103
0.070299976 -0.0571466 -0.26172844 0.04719415 0.0028384938 0.017781384 0.04092585 0.03097454
-0.061045423 -0.18479137 -0.09279474 0.09552246 0.0047061783 -0.0018348998 -0.02631231 -0.091015294
0.08866577 0.022859247 -0.014507599 0.029153083 -0.1181335 -0.10645232 -0.024899982 -0.049935773
-0.04775801 0.038850226 -0.04269253 0.02586276 0.041079506 -0.033777922 -0.044512287 0.18252143
-0.03470157 -0.019324271 -0.008247595 -0.06545816 -0.03269804 -0.035636272 0.10323972 -0.106318556
0.009715428 0.22094731 0.063692026 0.045240346 -0.08280804 0.027809858 0.03933101 0.09381605
0.07181233 -0.07888716 -0.04102499 0.024310209 0.07950997 0.07317008 -0.089809686 0.051765963
0.070967376 -0.11047131 -0.085334085 -0.07045438 0.02277252 -0.04799407 0.109844305 -0.06759248
-0.050579306 0.14753452 -0.008338456 -0.070070036 0.11465861 0.056563612 -0.1145459 -0.16937555
-0.020787448 -0.08656157 0.088642426 -0.0217812 -0.09216621 0.07941073 -0.073469654 0.0650293
0.08087246 -0.07430658 -0.025681827 -0.12806037 0.028533554 0.08793742 0.0866917 -0.022746475
0.02767957 0.084994584 0.1296221 -0.15327087 0.027600534 -0.03412253 0.077082194 -0.10781804
0.02840712 0.07862175 -0.038010154 0.024181303 -0.09226974 0.03476331 -0.11630411 0.076835185
-0.1225345 0.010681261 0.0018452266 0.054358054 -0.13899647 0.024208764 -0.0765044 0.076023534
-0.001934485 -0.045272373 0.003711379 -0.08444276 0.02161212 0.055887535 -0.04601166 0.032568775
-0.014107171 -0.11232401 -0.14003704 -0.1345679 -0.00022786541 0.42650783 -0.1950124 -0.2988051
-0.039039858 -0.08435809 -0.17182653 -0.077800326 0.060116887 -0.012657214 -0.008904618 0.016374165
-0.0867684 -0.10059912 -0.09366821 0.22272427 0.032248437 -0.0047409483 0.0651876 -0.0032911429
0.031339012 0.06874206 -0.111034915 -0.06776873 -0.10780982 0.0004487398 0.03668426 0.07873558
-0.10052397 -0.07676546 0.009610194 0.038863797 0.061403997 -0.16990083 -0.16782951 0.18500666
0.015645508 -0.08072576 0.020126225 -0.0902706 -0.04218865 0.015707094 0.018267484 -0.068757884
-0.10800713 0.21996546 -0.07652823 -0.10692474 0.048751824 -0.0653948 -0.020769926 0.13655008
-0.0416211 0.0012986094 -0.094975986 0.021941775 -0.08071537 0.08177742 -0.09462943 -0.08825985
-0.018508753 -0.015243163 -0.02044964 0.01155927 0.040431045 0.031074269 0.09972699 0.06560649
-0.05701552 -0.0007026048 -0.09266164 0.015090326 -0.00022434657 -0.08688321 -0.09507834 -0.33717006
-0.010461297 0.05651726 -0.06557223 -0.01842739 -0.101999804 0.059881072 0.071807034 0.04225542
00000000: 9785 4a3d 784d 10be a059 1a3d 5f20 46bd
00000010: be90 5cbd 703d 913d a883 783d 54f3 9b3c
00000020: 2bb1 debd e0c7 6e3c 07ae cbbb 92eb b2bd
00000030: b9e8 543d 9824 a83c c0eb 0c3d 4a04 3c3d
00000040: e7b3 56bd 31f3 ed3d fdcb cabd 70ac 063d
00000050: 0ca3 6dbd befe c6bd baaa 903c d02c 0d3d
00000060: abad c3bd b1d4 42bd dd0f 8bbd dd34 183d
00000070: adfa cabd 4c21 adbd 1cd2 c1bc 7845 063d
00000080: 826c 793d 61cb cd3c 5dcf 2ebd 297c 533d
00000090: f9bc 2abd c19b 8fbc 491d cd3a ef88 913d
000000a0: 354b 753d 47fb 9abc 3e66 0abe 6f9a 5abc
000000b0: deb5 9b3d 1229 d03e cb98 34be 9d67 a4be
000000c0: 6ff9 8f3d 8e12 6abd 4501 86be a74e 413d
000000d0: 0606 3a3b 44aa 913c dda1 273d 52be fd3c
000000e0: c40a 7abd f339 3dbe 2b0b bebd 48a1 c33d
000000f0: 4936 9a3b 0581 f0ba ea8c d7bc 3a66 babd
00000100: 6696 b53d 5143 bb3c 48b1 6dbc 72d2 ee3c
00000110: faef f1bd ad03 dabd 0cfb cbbc 7489 4cbd
00000120: e79d 43bd 6a21 1f3d 5dde 2ebd 24de d33c
00000130: fc42 283d b85a 0abd 8452 36bd e6e6 3a3e
00000140: 3c23 0ebd ef4d 9ebc ec20 07bc ee0e 86bd
00000150: 61ee 05bd 57f7 11bd 596f d33d 8bbd d9bd
00000160: 752d 1f3c 0340 623e f770 823d f14d 393d
00000170: 4397 a9bd 80d1 e33c 8e19 213d a122 c03d
00000180: 5812 933d 978f a1bd d209 28bd 3426 c73c
00000190: 20d6 a23d 32da 953d 24ee b7bd 8c08 543d
000001a0: 5857 913d c83e e2bd a3c3 aebd 634a 90bd
000001b0: 708d ba3c 6e95 44bd 0df6 e03d ed6d 8abd
000001c0: 3f2c 4fbd 4a13 173e 059e 08bc e180 8fbd
000001d0: 22d2 ea3d 3faf 673d 0a97 eabd c970 2dbe
000001e0: 704a aabc 3147 b1bd 298a b53d 7d6e b2bc
000001f0: a3c1 bcbd 18a2 a23d 4277 96bd 152e 853d
00000200: 76a0 a53d 0c2e 98bd b262 d2bc 4222 03be
00000210: 33bf e93c 8918 b43d 6b8b b13d d156 babc
00000220: 44c0 e23c a411 ae3d a8bb 043e 0af3 1cbe
00000230: 841a e23c 11c4 0bbd 45dd 9d3d b4cf dcbd
00000240: 0cb6 e83c 7104 a13d 89b0 1bbd de17 c63c
00000250: ebf7 bcbd f963 0e3d d930 eebd c45b 9d3d
00000260: 5ef3 fabd 7500 2f3c 88db f13a 8da6 5e3d
00000270: 1755 0ebe 7551 c63c 57ae 9cbd 3ab2 9b3d
00000280: 8c8e fdba 866f 39bd 9b3a 733b 53f0 acbd
00000290: e70b b13c 54ea 643d b976 3cbd d666 053d
000002a0: c421 67bc 210a e6bd df65 0fbe 2bcc 09be
000002b0: 28ef 6eb9 3c5f da3e 55b1 47be fbfc 98be
000002c0: 42e8 1fbd efc3 acbd 4bf3 2fbe c755 9fbd
000002d0: 203d 763d 3460 4fbc ade4 11bc 1d23 863c
000002e0: a2b3 b1bd e906 cebd 1ed5 bfbd d511 643e
000002f0: f016 043d f559 9bbb 1481 853d 37b0 57bb
00000300: 565d 003d a3c8 8c3d 4666 e3bd 55ca 8abd
00000310: 65cb dcbd d644 eb39 3c42 163d 1f40 a13d
00000320: 83df cdbd 3637 9dbd 1374 1d3c a52f 1f3d
00000330: c282 7b3d 7cfa 2dbe 80db 2bbe 6372 3d3e
00000340: 022b 803c 8c53 a5bd c1df a43c cbdf b8bd
00000350: 02ce 2cbd 2aac 803c b1a5 953c efd0 8cbd
00000360: d832 ddbd a03e 613e d5ba 9cbd 5cfb dabd
00000370: feaf 473d b5ed 85bd b125 aabc c9d3 0b3e
00000380: e37a 2abd 1a36 aa3a c582 c2bd 3dbf b33c
00000390: 1a4e a5bd ec7a a73d 13cd c1bd 95c1 b4bd
000003a0: ab9f 97bc 76be 79bc 0186 a7bc 1863 3d3c
000003b0: 069b 253d 778f fe3c aa3d cc3d b25c 863d
000003c0: 1b89 69bd 032f 38ba 63c5 bdbd 6a3d 773c
000003d0: 933e 6bb9 d3ef b1bd 6fb8 c2bd 8ea1 acbe
000003e0: dc65 2bbc a47e 673d bc4a 86bd 0af5 96bc
000003f0: 46e5 d0bd db45 753d 910f 933d 0514 2d3d

encoder.6.bias f4 [32]
-0.03142734 0.04070499 0.00782051 0.049512427 0.09537714 -0.059517387 0.07634927 0.090273105
0.0973909 -0.10008218 -0.04933679 -0.043367386 -0.064822145 0.01436272 0.09464369 0.07409266
0.015607192 0.07962663 -0.0082187615 0.011460826 -0.08348235 0.0050128866 -0.010346923 0.0077542933
-0.039899427 -0.03841544 -0.040285032 0.015580183 0.09045539 0.08163979 0.012441123 -0.056486305
00000000: f4b9 00bd 47ba 263d 9921 003c 8bcd 4a3d
00000010: 1755 c33d 81c8 73bd 025d 9c3d 1be1 b83d
00000020: e174 c73d e3f7 ccbd 6015 4abd 00a2 31bd
00000030: 79c1 84bd 9d51 6b3c 8dd4 c13d e4bd 973d
00000040: 4fb5 7f3c 4913 a33d fca7 06bc 30c6 3b3c
00000050: cbf8 aabd 2443 a43b 2486 29bc ba17 fe3b
00000060: 956d 23bd 8259 1dbd eb01 25bd 0644 7f3c
00000070: ad40 b93d c332 a73d dad5 4b3c 2f5e 67bd

encoder.7.weight f4 [2, 32, 1, 1]
-0.09246769 -0.15702128 -0.23720458 0.058693286 0.13265274 -0.07673633 0.05615455 -0.19493195
0.10525692 -0.068877615 0.04632216 0.16808218 -0.23967507 -0.13671485 -0.09603359 0.15074104
-0.18830281 0.07915143 -0.031311378 0.08962155 0.020228375 -0.06995945 0.094282456 0.2263709
0.1962652 0.07436503 0.21257108 0.047162488 -0.018070899 0.14556189 -0.005345548 0.18445192
-0.12543842 -0.17380504 0.042879034 0.15839645 0.1532651 0.03757748 0.16228794 0.005386451
0.182611 -0.11233971 -0.14216626 0.03846416 0.049656563 0.15195824 0.024151405 0.086987495
-0.090918295 0.12593052 0.08089202 -0.1136077 -0.067347035 0.16111813 0.08435041 -0.08151945
-0.15432587 -0.09402942 -0.054076336 0.095436916 0.15412337 0.07910508 -0.20563763 -0.15763997
00000000: b35f bdbd 30ca 20be c2e5 72be 5f68 703d
00000010: 1fd6 073e f027 9dbd 5002 663d 3e9c 47be
00000020: f190 d73d b50f 8dbd 4ebc 3d3d bc1d 2c3e
00000030: 626d 75be fafe 0bbe 42ad c4bd dc5b 1a3e
00000040: 74d2 40be 251a a23d 5c40 00bd 818b b73d
00000050: fab5 a53c e646 8fbd 2917 c13d c6cd 673e
00000060: bff9 483e b14c 983d 3cac 593e 742d 413d
00000070: 6c09 94bc 2d0e 153e b529 afbb f7e0 3c3e
00000080: ee72 00be f3f9 31be eda1 2f3d ae32 223e
00000090: 87f1 1c3e d8ea 193d cf2e 263e d380 b03b
000000a0: 61fe 3a3e 5d12 e6bd 0894 11be 988c 1d3d
000000b0: ae64 4b3d f19a 1b3e 2bd9 c53c 8026 b23d
000000c0: 5f33 babd eef3 003e b7aa a53d 27ab e8bd
000000d0: 3eed 89bd 27fc 243e e8bf ac3d abf3 a6bd
000000e0: 9a07 1ebe 7f92 c0bd 267f 5dbd 6e74 c33d
000000f0: 84d2 1d3e d801 a23d ac92 52be 5f6c 21be

encoder.7.bias f4 [2]
-0.0760831 0.07636803
00000000: 75d1 9bbd d766 9c3d
